matching_net-WITHOUT-FCE-0.74-accuracy.pt (torch_old, 472043 bytes, 26 tensors)

embedding.conv1.conv.weight f4 [64, 1, 3, 3]
0	0xbe234c33	-0.15947036
1	0x3e9ed667	0.3102295
2	0x3c198f66	0.009372568
3	0x3e1600af	0.14648698
4	0x3e9d26c8	0.3069365
5	0xbddb3af9	-0.107046075
6	0xbe8adfd1	-0.27123883
7	0x3eb9207b	0.36157593
8	0xbcb3bd83	-0.021940952
9	0x3e092f8d	0.13397045
10	0x3e1c58e0	0.15268278
11	0x3e1aa32e	0.1510131
12	0xbdcfe0f3	-0.101503275
13	0xbe55bb93	-0.20872335
14	0x3dadd43f	0.08487748
15	0x3dfea5eb	0.1243399
16	0x3d521ac9	0.051295076
17	0xbe2865b3	-0.16445045
18	0xbe952002	-0.29125983
19	0xbe4a73e1	-0.19770767
20	0xbd2f6aee	-0.042826585
21	0x3e59c045	0.21264751
22	0xbe8faa7b	-0.28059754
23	0xbe683eb3	-0.22680168
24	0x3e717fb6	0.23583874
25	0x3ecacfda	0.39611703
26	0x3e8b5d31	0.27219537
27	0x3e1aebe1	0.15129043
28	0x3c9d69dd	0.019215519
29	0xbe54a4cf	-0.20765994
30	0xbe932f30	-0.2874694
31	0x3d257c8b	0.040401977
32	0xbe79624b	-0.24353902
33	0xbd61d804	-0.05513765
34	0xbdfe1bcb	-0.12407645
35	0x3e17fc41	0.14842321
36	0x3e953c80	0.2914772
37	0x3e361c8a	0.17784324
38	0x3e1ca6c8	0.15297997
39	0xbc293445	-0.010327403
40	0x3d801630	0.06254232
41	0xbe8203a7	-0.25393412
42	0x3df4829a	0.11938973
43	0xbe3ec21c	-0.18628734
44	0x3d1d0270	0.038332403
45	0x3e1102b5	0.14161189
46	0xbe6bbc03	-0.2302094
47	0x3e17c2ae	0.14820358
48	0x3d9a8efc	0.07546803
49	0xbe654886	-0.22390947
50	0x3e5a4d62	0.21318582
51	0x3e8b6a65	0.2722961
52	0xbdbde090	-0.092713475
53	0xbde7d486	-0.113198325
54	0xbeb1ae79	-0.34703425
55	0x3da309dc	0.07960865
56	0xbe7ce2d8	-0.24695909
57	0x3e8d26eb	0.27568755
58	0xbe0efcb3	-0.13963585
59	0xbdc7dd3f	-0.09758996
60	0x3e1dd64b	0.15413778
61	0xbc8315f2	-0.016001675
62	0xbe25c003	-0.16186528
63	0x3e45bae5	0.19309576
64	0x3e9fc4b4	0.3120476
65	0x3bc5fc49	0.0060420376
66	0x3e89859c	0.26859748
67	0x3d7aef6a	0.06126348
68	0xbea70445	-0.32620445
69	0xbe2e9b23	-0.17051367
70	0x3e922289	0.28541973
71	0xbe84662b	-0.25859198
72	0xbe234b2c	-0.15946645
73	0xbe01c5f4	-0.1267317
74	0x3db9a4a8	0.09064609
75	0x3e3e0d09	0.1855966
76	0xbe3feb15	-0.1874202
77	0xbe508666	-0.20363769
78	0xbd4f66a8	-0.05063501
79	0x3d3f4cb3	0.046704005
80	0x3e9b3a2c	0.3031782
81	0x3e9d91b1	0.30775216
82	0xbe215f74	-0.15759069
83	0x3e3bfd7c	0.18358415
84	0x3e335004	0.17510992
85	0xbe311c3a	-0.17295924
86	0xbd49e177	-0.049287286
87	0x3eb8488c	0.3599285
88	0x3d9ecf08	0.07754332
89	0x3d8691c0	0.06570768
90	0x3a83e81d	0.0010063682
91	0xbe81f0b4	-0.25378954
92	0x3e90dea1	0.28294852
93	0x3cc5cb1c	0.024144702
94	0xbdad1b6d	-0.08452497
95	0x3e2d754f	0.16939281
96	0xbc737eda	-0.014861787
97	0x3e886c66	0.266452
98	0xbe2c741c	-0.16841167
99	0x3e1ed12f	0.15509485
100	0xbd3a644c	-0.045505807
101	0xbe91c40a	-0.28469878
102	0xbea508c0	-0.32233238
103	0xbea0ab22	-0.31380564
104	0x3e0f73a4	0.14008957
105	0x3e33a99b	0.17545168
106	0x3e9dee54	0.30845892
107	0x3d9bff10	0.07617009
108	0x3e8a3249	0.2699149
109	0xbc5de6e9	-0.013543823
110	0x3e78079b	0.24221651
111	0xbe6fb81e	-0.23410079
112	0x3e19c65e	0.15017077
113	0x3e335091	0.17511202
114	0xbd2830b1	-0.04106206
115	0xbe0f89e4	-0.14017445
116	0x3e51c3d6	0.20484862
117	0xbe93b232	-0.2884689
118	0x3e08cb6e	0.13358852
119	0xbe89007d	-0.26758185
120	0x3e7e569b	0.24837725
121	0xbdd2fda5	-0.10302285
122	0x3c64644a	0.013939926
123	0xbe5ddbdc	-0.21665901
124	0xbe86f19e	-0.26356214
125	0x3e22c846	0.15896711
126	0x3daf2fa1	0.08554006
127	0x3dabf5bc	0.083964795
128	0xbe49574f	-0.19662212
129	0xbe4307b0	-0.19045901
130	0x3e63b0ba	0.22235385
131	0x3e3b93e8	0.1831814
132	0xbe88650b	-0.2663959
133	0x3e81e3c7	0.25369093
134	0xbe886bd3	-0.26644763
135	0x3e39aa6b	0.18131416
136	0x3d5ab115	0.053391535
137	0xbe8ebc3b	-0.27877983
138	0xbdb1f53a	-0.086893514
139	0x3e94ece0	0.2908697
140	0x3e002206	0.12512979
141	0xbe73a361	-0.23792793
142	0xbe2efc4c	-0.17088431
143	0xbe862db7	-0.26206753
144	0xbda3e020	-0.08001733
145	0x3de110a1	0.109895
146	0x3e4b3377	0.19843851
147	0xbccba84a	-0.02486052
148	0xbe3c3cdf	-0.18382595
149	0x3e87d946	0.26532954
150	0xbe31856a	-0.1733605
151	0x3dc0d44c	0.094154924
152	0xbcbc3569	-0.022974687
153	0xbd37d716	-0.044882856
154	0x3dc61194	0.096713215
155	0x3e2771f3	0.16352062
156	0x3dd1a102	0.10235788
157	0x3ead4837	0.33844158
158	0x3e832fbf	0.25622365
159	0x3eb59264	0.3546325
160	0xbdc8ec90	-0.09810746
161	0xbe9e0fad	-0.30871335
162	0x3e94b976	0.29047745
163	0xbe83662b	-0.25663885
164	0xbd2ce93a	-0.04221461
165	0x3dfba2f3	0.122869395
166	0x3dedba28	0.11607772
167	0xbb10aed0	-0.0022076853
168	0x3e39e1e3	0.18152575
169	0x3da75704	0.08170894
170	0xbdc2cfae	-0.09512268
171	0xbd1d056e	-0.038335256
172	0x3dd1ac88	0.10237986
173	0xbe877fab	-0.2646459
174	0x3d9b4bf2	0.07582845
175	0x3e85ef0f	0.2615895
176	0xbdf7a15c	-0.12091324
177	0x3dbaab97	0.091147594
178	0x3e11fa8f	0.14255737
179	0x3e55141f	0.20808457
180	0x3bfbb9d5	0.007682065
181	0x3d95f5be	0.07322262
182	0x3e890491	0.26761296
183	0x3b760678	0.0037540477
184	0xbe966d1a	-0.29380113
185	0x3e8b6446	0.2722494
186	0x3e9dc953	0.3081766
187	0xbe5bfb10	-0.21482491
188	0x3dc9473b	0.09828039
189	0xbe14e69a	-0.14541093
190	0xbda3e791	-0.08003152
191	0x3d3610f4	0.04444976
192	0xbe85fb23	-0.26168165
193	0x3e0bf8a7	0.13669072
194	0xbe8f822d	-0.28029004
195	0x3e05b05a	0.13055554
196	0x3ddacd83	0.106837295
197	0x3ea43798	0.32073665
198	0xbe0d1a99	-0.13779677
199	0xbe274f47	-0.16338836
200	0x3e871228	0.2638104
201	0xbe64824d	-0.22315331
202	0x3ead1431	0.33804467
203	0x3db855a9	0.090007134
204	0x3d96f5de	0.07371114
205	0xbe69bafa	-0.22825232
206	0xbcd15d05	-0.02555705
207	0x3e4eb5dd	0.20186563
208	0xbddebab2	-0.10875453
209	0xbe9b1344	-0.30288136
210	0xbe2e3b4c	-0.17014807
211	0x3e879c47	0.26486418
212	0xb83c0158	-4.4823944e-05
213	0xbe25660f	-0.16152214
214	0xbe9ba306	-0.30397815
215	0x3dfd37de	0.123641714
216	0xbe42a63d	-0.19008727
217	0x3d1c14f4	0.03810592
218	0x3e9c9d21	0.3058863
219	0x3e295f40	0.16540241
220	0xbe0091cc	-0.12555617
221	0xbea0b0d7	-0.31384918
222	0xbe13c0cb	-0.14429013
223	0xbe1bea77	-0.1522616
224	0x3dee4cd8	0.116357505
225	0x3be944e4	0.007118808
226	0x3e752532	0.2393997
227	0xbdac9295	-0.08426396
228	0x3e7bfcb3	0.24608116
229	0xbe414212	-0.1887286
230	0xbdf530b3	-0.11972179
231	0xbe6f373c	-0.23360914
232	0x3c284f69	0.010272839
233	0x3e6be74a	0.23037449
234	0x3e50caf2	0.20389917
235	0xbd979c5f	-0.07402872
236	0xbda8799b	-0.082263194
237	0x3bab1841	0.005221397
238	0x3e894a99	0.26814726
239	0x3e44fe3d	0.19237609
240	0xbe753b09	-0.23948301
241	0xba6027e1	-0.00085508643
242	0x3e530097	0.20605694
243	0xbd9690c9	-0.07351834
244	0x3e9ec612	0.3101049
245	0xbe3e5e0c	-0.18590564
246	0xbe245b31	-0.16050412
247	0x3ca3c683	0.019992119
248	0xbe6fb74a	-0.23409763
249	0x3e12bef3	0.14330654
250	0xbe99e420	-0.30056858
251	0xbe81a0a4	-0.25317872
252	0xbe685c6a	-0.22691503
253	0x3dda4ecc	0.106595606
254	0xbd48ebe9	-0.049053106
255	0xbe2b057f	-0.16701315

embedding.conv1.conv.bias f4 [64]
0	0x3da384af	0.07984292
1	0xbe40c487	-0.18824969
2	0x3d8f1ed0	0.06988299
3	0xbe2b6819	-0.16738929
4	0xbea054a6	-0.31314582
5	0xbdc1548b	-0.094399534
6	0x3e290a12	0.16507748
7	0xbe7c3340	-0.24628925
8	0x3d153d23	0.036435258
9	0xbd1e6394	-0.038669184
10	0x3e72546a	0.23665014
11	0xbd579159	-0.05262885
12	0xbec209b2	-0.37898022
13	0xbd536a4c	-0.051615044
14	0x3ea378a0	0.31927967
15	0xbe5d03c0	-0.21583462
16	0xbe8e1cb3	-0.2775627
17	0x3defc34f	0.11707174
18	0xbeb93b33	-0.36177978
19	0x3e8fe093	0.28101024
20	0xbe62d63e	-0.2215204
21	0x3ea5f2d7	0.32411835
22	0xbe8ea4fe	-0.27860254
23	0xbdcbb1ee	-0.09946047
24	0xbe2fa31f	-0.1715207
25	0xbda10e0d	-0.07864008
26	0xbe33f0e1	-0.17572357
27	0x3d841760	0.06449771
28	0xbe915fbd	-0.28393355
29	0x3e8f63c2	0.28005797
30	0x3d941abe	0.07231663
31	0x3e866e4c	0.26256025
32	0xbdce845d	-0.1008384
33	0xbdfdbc0c	-0.12389383
34	0xbdfd32bd	-0.12363193
35	0x3def566c	0.116864055
36	0x3e9715ff	0.2950897
37	0xbe7f70ff	-0.24945448
38	0x3e7e2966	0.2482048
39	0x3e20fac5	0.15720661
40	0xbea3912f	-0.31946704
41	0xbe684c31	-0.22685315
42	0xbe0c78c8	-0.1371795
43	0x3d02bdaf	0.031919178
44	0xbe427882	-0.18991283
45	0xbe35996a	-0.17734304
46	0x3e6e8f66	0.2329689
47	0xbe392e77	-0.18084131
48	0xbe4a58aa	-0.19760385
49	0x3dafb9d7	0.08580368
50	0x3db09caa	0.08623631
51	0xbe6cf11e	-0.23138854
52	0xbd14c31d	-0.036318887
53	0x3e69be85	0.22826584
54	0x3e40f8e8	0.1884495
55	0xbe86202c	-0.2619642
56	0x3cfa3583	0.030543095
57	0x3c31eda6	0.010859882
58	0xbe7e2b2e	-0.24821159
59	0xbed12b8e	-0.40853542
60	0xbe84073c	-0.2578677
61	0x3e0237ca	0.12716594
62	0x3d47e54f	0.04880267
63	0xbe8e465b	-0.27788052

embedding.conv1.batch_norm_layer.weight f4 [64]
0	0x3f6dbc32	0.9286529
1	0x3dfac979	0.12245459
2	0x3dd85a78	0.105641305
3	0x3f38310b	0.71949834
4	0x3ea404ca	0.32034904
5	0x3e9b04e2	0.30277163
6	0x3ebcf137	0.36902782
7	0x3f531fc8	0.8247037
8	0x3e51cecc	0.20489043
9	0x3ee1712d	0.4403166
10	0x3f424935	0.75892955
11	0x3ec0e033	0.3767105
12	0x3f3be1b4	0.7339127
13	0x3f2b1338	0.668262
14	0x3f1a9125	0.6037772
15	0x3f6c10f3	0.9221336
16	0x3f5dd9b6	0.86660326
17	0x3f6e9478	0.93195295
18	0x3ee72abd	0.45149794
19	0x3f42a5a6	0.7603401
20	0x3f6a1186	0.9143299
21	0x3f15f2b8	0.58573484
22	0x3f3d8f24	0.7404654
23	0x3edef2ba	0.4354456
24	0x3f517d40	0.8183174
25	0x3e36ab2c	0.17838734
26	0x3f28d082	0.6594316
27	0x3ef860fa	0.48511487
28	0x3e585a8d	0.21128292
29	0x3f366ecb	0.71262807
30	0x3f55d180	0.83522797
31	0x3edd7a59	0.43257406
32	0x3e96b100	0.29431915
33	0x3ef8e8b2	0.48615032
34	0x3f44082f	0.7657499
35	0x3e21015e	0.15723178
36	0x3f60961c	0.8772905
37	0x3f5103c8	0.81646395
38	0x3e3126c4	0.17299944
39	0x3e870a00	0.26374817
40	0x3e9e3ce6	0.30905837
41	0x3e56474c	0.20925635
42	0x3ead434f	0.33840415
43	0x3f12aa38	0.57290983
44	0x3f0e390e	0.5555581
45	0x3f56e0ee	0.83936965
46	0x3e8c67a5	0.27422825
47	0x3f0a351d	0.53987294
48	0x3f358205	0.7090152
49	0x3f5eafdd	0.86987096
50	0x3eb6835f	0.35647103
51	0x3ec94bf3	0.39315757
52	0x3e53e190	0.20691514
53	0x3f192c7a	0.5983349
54	0x3e503d2c	0.20335835
55	0x3f37f0ad	0.7185162
56	0x3eaef59d	0.34171763
57	0x3f531b21	0.8246327
58	0x3e44f9aa	0.19235864
59	0x3f3bfa96	0.7342924
60	0x3f18b200	0.59646606
61	0x3f3c31a4	0.73513246
62	0x3e522cf3	0.2052496
63	0x3ec8ccd3	0.39218768

embedding.conv1.batch_norm_layer.bias f4 [64]
0	0xbdc7ad0f	-0.09749805
1	0xbd606ec4	-0.054793134
2	0x3c2918b5	0.010320832
3	0x3cfa94e3	0.030588573
4	0xbd586ba4	-0.05283703
5	0xbd62f797	-0.0554119
6	0xbd4dca3a	-0.050241686
7	0xbd970e94	-0.073758274
8	0xbd91601d	-0.0709841
9	0xbc17abbb	-0.009257252
10	0xbd9fe41a	-0.07807179
11	0xbd8f1825	-0.06987027
12	0xbd5e9cc6	-0.05434873
13	0x3ba35bcc	0.0049853083
14	0xbdd67734	-0.10471955
15	0x3b92ca51	0.0044796844
16	0xbb4335d4	-0.0029786723
17	0xbdc37ebb	-0.09545656
18	0xbc991ce2	-0.01869053
19	0xbd1c0df5	-0.038099248
20	0xbe12e978	-0.14346874
21	0xbd9ac247	-0.07556587
22	0x3bd2d708	0.006434325
23	0x3c5b8b15	0.013399859
24	0xbd334b13	-0.04377277
25	0xbd3281f1	-0.043580953
26	0xbdcedfe9	-0.10101301
27	0xbcda6567	-0.02665968
28	0xbb646ebf	-0.003485605
29	0xbdcbcec4	-0.09951547
30	0xbd3326e8	-0.043738276
31	0xbd0bc318	-0.034121603
32	0xbcc59cf6	-0.024122696
33	0xbd052712	-0.032507963
34	0xbda2b7c9	-0.079452105
35	0x3b28f68f	0.0025781726
36	0xbe19926a	-0.14997259
37	0xbdc5253b	-0.09626242
38	0xbccda654	-0.025103725
39	0xbc8ef5bc	-0.01745116
40	0xbde32b04	-0.11092189
41	0xbcc86f86	-0.024467241
42	0xbd78211b	-0.060578447
43	0xbd34bfc8	-0.04412821
44	0xbcd4b5e5	-0.02596564
45	0x3c4c0c8b	0.012454162
46	0x3c1c9053	0.009555894
47	0xbd92f901	-0.071764
48	0x3bcee886	0.00631434
49	0xbdd2e738	-0.10298008
50	0xbbbab0c2	-0.0056973407
51	0x3c5a4c76	0.013323894
52	0xbb6fdd0c	-0.003660026
53	0xbdd26666	-0.10273437
54	0xbc901fac	-0.017593227
55	0xbd023c86	-0.031796
56	0xbc9d303b	-0.019188037
57	0xbcb99a25	-0.02265651
58	0x3bd90e42	0.006624014
59	0xbcdc4368	-0.02688761
60	0xbd850419	-0.06494922
61	0xbcb197f0	-0.021678895
62	0xbbea2a24	-0.007146137
63	0x3d824f40	0.06362772

embedding.conv1.batch_norm_layer.running_mean f4 [64]
0	0x3f1e135f	0.6174831
1	0x3d048597	0.032353964
2	0x3e31555a	0.17317715
3	0x384aca1a	4.8348775e-05
4	0x3d9ac78c	0.07557592
5	0x3dafb1cd	0.08578835
6	0x3cb57fae	0.022155609
7	0x3e14d174	0.14533025
8	0x3ca064e6	0.019579362
9	0x3f20578e	0.626336
10	0x3edb67bf	0.4285259
11	0x3c5bbcda	0.013411725
12	0x3e42a8bd	0.19009681
13	0x3a14fbae	0.0005683255
14	0x3e8c03e6	0.27346724
15	0x3b63e300	0.0034772754
16	0x3c4b9066	0.012424564
17	0x3f620b76	0.8829874
18	0x3d288b2e	0.041148357
19	0x3f31da37	0.69473594
20	0x3e6d1a77	0.23154627
21	0x3e9c15c8	0.30485368
22	0x3b1b8497	0.0023730153
23	0x3a10b793	0.0005520519
24	0x3a340eda	0.0006868668
25	0x3d04a95e	0.032388084
26	0x3e871c22	0.2638865
27	0x3b2a388b	0.0025973644
28	0x3b20ba4e	0.0024525109
29	0x3f02424d	0.50882417
30	0x3f00faf9	0.50382954
31	0x3ca0c91e	0.01962715
32	0x3eae5803	0.34051523
33	0x3f30fdf5	0.6913751
34	0x3e95564d	0.29167405
35	0x3c861944	0.01636947
36	0x3eebc2bd	0.4604701
37	0x3c4b71b5	0.012417247
38	0x3df202e9	0.11816961
39	0x3c50f1dd	0.012752977
40	0x00000000	0.0
41	0x3c5846c7	0.013200468
42	0x3df0a295	0.1174976
43	0x3c67b4db	0.01414224
44	0x3ef2801a	0.4736336
45	0x3660017a	3.337946e-06
46	0x3f7abc93	0.9794399
47	0x3ccfefd9	0.025382923
48	0x3a3179a3	0.00067701394
49	0x3e90dce8	0.28293538
50	0x3a9cd26d	0.0011964567
51	0x379bee90	1.858853e-05
52	0x39ad64b5	0.00033072164
53	0x3ecccb0b	0.3999866
54	0x3d6b0921	0.057381753
55	0x3c424c79	0.011859053
56	0x3c52e853	0.012872773
57	0x3ab5eee1	0.0013880396
58	0x38fedc2e	0.000121526755
59	0x3f15300c	0.5827644
60	0x3c9397ea	0.018016774
61	0x3c487e49	0.01223714
62	0x39de2c64	0.00042376213
63	0x38285a49	4.0138406e-05

embedding.conv1.batch_norm_layer.running_var f4 [64]
0	0x3cf215ff	0.029551504
1	0x3ad65054	0.0016350844
2	0x3cdba4cb	0.026811978
3	0x368ae1c8	4.139005e-06
4	0x3b4de5aa	0.0031417408
5	0x3bcae9bf	0.0061924155
6	0x3b84a246	0.004047665
7	0x3cb51bec	0.02210804
8	0x3b6e6d82	0.003638119
9	0x3d4ec035	0.05047627
10	0x3c2b6228	0.010460414
11	0x3b94c7ef	0.0045404355
12	0x3c1f67a2	0.009729298
13	0x38b78fb6	8.752888e-05
14	0x3c9332d4	0.017968573
15	0x39a4fe7d	0.00031470126
16	0x3af135cf	0.0018402877
17	0x3d30a919	0.043130014
18	0x3b191821	0.002336033
19	0x3cee58bd	0.029095048
20	0x3c962843	0.018329745
21	0x3c979eaa	0.018508274
22	0x39c7382a	0.00037998083
23	0x3888ac6b	6.517101e-05
24	0x38d09311	9.945606e-05
25	0x3b34a668	0.0027565006
26	0x3c41f965	0.011839245
27	0x39ed4db0	0.00045262044
28	0x3a03ca1e	0.0005027371
29	0x3c90d807	0.017681135
30	0x3c5d7eca	0.013518998
31	0x3b5a512d	0.0033312545
32	0x3c99f355	0.018792788
33	0x3d5adf36	0.053435527
34	0x3cb4eede	0.022086557
35	0x3b82d0f8	0.003992196
36	0x3c497e4a	0.012298176
37	0x3ad027a6	0.0015880957
38	0x3cc936c5	0.024562249
39	0x3b3e350c	0.0029023318
40	0x00000004	6e-45
41	0x3b4ea002	0.0031528478
42	0x3c443361	0.01197514
43	0x3b3b577f	0.0028586087
44	0x3d078200	0.033082962
45	0x33f8b6f8	1.1581682e-07
46	0x3d23f8f1	0.04003233
47	0x3bb00957	0.005372207
48	0x38a9607f	8.076522e-05
49	0x3c522868	0.012827016
50	0x3943821e	0.00018645122
51	0x3602d5b1	1.9495894e-06
52	0x38639dba	5.426791e-05
53	0x3ceabfb3	0.028655862
54	0x3c152fae	0.009105606
55	0x3afd98ae	0.001934787
56	0x3b34e0d1	0.0027599821
57	0x398d7aba	0.00026985054
58	0x3782822d	1.5557825e-05
59	0x3d68ac59	0.05680499
60	0x3b83be1f	0.004020467
61	0x3b295309	0.0025836846
62	0x38a503ea	7.868542e-05
63	0x368545a2	3.971815e-06

embedding.conv2.conv.weight f4 [64, 64, 3, 3]
0	0x3d3ca564	0.046056166
1	0x3c748c51	0.014926032
2	0xbb154eb7	-0.0022782513
3	0xbd8c8b23	-0.06862476
4	0x3bc68e01	0.0060594087
5	0xbc83af26	-0.016074728
6	0xbd1f160c	-0.038839385
7	0x3ae79db9	0.0017670906
8	0x3c99bf5f	0.01876801
9	0xbcdbf6d0	-0.026851088
10	0x3d310e75	0.043226678
11	0x3d1f336f	0.03886741
12	0xbce35702	-0.02775145
13	0x3db8c881	0.09022618
14	0x3d0db0e3	0.03459252
15	0x3c4299e7	0.0118775135
16	0x3d89f0f6	0.06735413
17	0x3d398c81	0.04530001
18	0x3cf76152	0.030197773
19	0x3cd0fccd	0.02551117
20	0x3d243133	0.040085983
21	0x3d24c78c	0.040229365
22	0x3c1afd9d	0.00945988
23	0xbb9e0a34	-0.0048229937
24	0x3d6bbe82	0.05755473
25	0x3d819848	0.063278735
26	0x3b4ebd4e	0.003154594
27	0x3a7a3cde	0.0009545813
28	0x3d46fab1	0.04857892
29	0x3acfcb24	0.0015853387
30	0x3aa24824	0.0012381119
31	0xbc67a76f	-0.01413904
32	0xbd5f6a74	-0.05454488
33	0xbc9adccd	-0.018904114
34	0xbd81c96e	-0.06337248
35	0x3b8b785c	0.0042562913
36	0x3ce3ac5f	0.027792154
37	0xbd574f6a	-0.05256597
38	0xbb857869	-0.004073192
39	0x3c0dda2a	0.008657971
40	0x3bfa1a8f	0.0076325606
41	0x3d126b29	0.035746727
42	0xbd103734	-0.035208896
43	0x3cbe8204	0.023255356
44	0x3c100812	0.008790987
45	0x3cac2dbc	0.021017902
46	0x3c9bf61f	0.019038258
47	0xbd4ecc07	-0.050487544
48	0x3cf44bd0	0.029821306
49	0x3d02189d	0.031761754
50	0xbd5c6385	-0.053805847
51	0xbd73ac9f	-0.059490796
52	0x3ce8f64d	0.028437758
53	0xbcb6a159	-0.022293733
54	0xbd1be045	-0.038055677
55	0xbc77806a	-0.0151063
56	0x3adf666e	0.0017044076
57	0x3c630406	0.01385594
58	0x3cb44716	0.022006553
59	0xbc305e35	-0.010764648
60	0x3ccd0274	0.025025584
61	0x3b3b2590	0.0028556325
62	0xbb66fed2	-0.00352471
63	0x3c5ffa15	0.013670464
64	0x3c3c148a	0.011479506
65	0x3abd1917	0.0014427033
66	0xbca1cf16	-0.019752067
67	0x3d2b482b	0.04181687
68	0x3c47b3db	0.012188877
69	0x3b2f32ac	0.0026733084
70	0x3cd9e107	0.02659656
71	0xbc27201e	-0.010200528
72	0x3bdf3db6	0.0068127764
73	0xbd681151	-0.05665714
74	0xbd255724	-0.040366307
75	0xbc8f89e4	-0.017521806
76	0x3ceed32d	0.02915343
77	0x3ccb5b4f	0.024823813
78	0x3ca226be	0.019793864
79	0x3c439b40	0.01193887
80	0x3bec8950	0.0072185174
81	0xbcc5b62b	-0.024134716
82	0xbca26a0a	-0.019825954
83	0xbcaf651f	-0.021410523
84	0x3c2dcbac	0.010607641
85	0xbd58bf1f	-0.052916642
86	0xbd6b8049	-0.05749539
87	0x3d8600f8	0.065431535
88	0x3d3edfa7	0.04660001
89	0xbd0484f1	-0.032353345
90	0x3bcc16e2	0.006228314
91	0xbcb8844a	-0.022524018
92	0x3b616b08	0.003439607
93	0x3c392854	0.011301119
94	0x3c4fa064	0.012672517
95	0xbc4ea648	-0.012612887
96	0xbd46947f	-0.04848146
97	0x3c1ab52e	0.009442611
98	0x3cd473c2	0.025934104
99	0xbc77cee3	-0.015125009
100	0x3c94ad12	0.018148933
101	0x3cad69c5	0.021168599
102	0xbd32d7cb	-0.043662827
103	0xbc611170	-0.013737068
104	0x3d1a9ccc	0.03774719
105	0xbc81c52d	-0.015841091
106	0x3c56497b	0.013079043
107	0x3c041d2b	0.008063595
108	0xbd42233f	-0.047396895
109	0xbd18873b	-0.03723834
110	0x3bb4886e	0.0055094277
111	0xbd13ef88	-0.036117107
112	0x3d1e6f02	0.038680084
113	0x3d46835d	0.04846512
114	0xbc911d37	-0.017714126
115	0xbcd83eb3	-0.026397085
116	0x3cc516b6	0.024058681
117	0xbd05ac25	-0.032634873
118	0xbd98525f	-0.07437586
119	0xbc0f4c2a	-0.008746186
120	0xbcbe542b	-0.023233494
121	0x3ca632ed	0.020287955
122	0xbcb52e4e	-0.022116806
123	0x3c0f2bcd	0.00873847
124	0xbd429160	-0.04750192
125	0xbac2d627	-0.0014864848
126	0x3d2fb333	0.042895507
127	0xbbe449f1	-0.0069668223
128	0xbd2f0dff	-0.042737957
129	0xbd0f1534	-0.03493233
130	0xbc25b112	-0.010113018
131	0x3d40744e	0.046985917
132	0xbcf7ecce	-0.030264284
133	0xbcb65df2	-0.022261593
134	0x3c5c20e9	0.013435581
135	0xbd329863	-0.04360236
136	0xbcc2a3f7	-0.023759825
137	0xbb6e9f09	-0.003641071
138	0x3a8df0a3	0.0010829162
139	0xbb3af25b	-0.0028525803
140	0xbb62ba67	-0.0034595968
141	0x3cf92595	0.030413428
142	0x3cd9390f	0.026516465
143	0x3cd7d6ca	0.026347537
144	0x3b080549	0.0020755103
145	0xbc1b7245	-0.009487693
146	0x3b869ed7	0.0041082907
147	0x3c0a64c6	0.008446878
148	0xbbc79620	-0.0060908943
149	0x3d015635	0.031576354
150	0xbd3a9382	-0.04555083
151	0x3ce3bb21	0.027799191
152	0xbc913a99	-0.017728137
153	0x3cb92b89	0.022603767
154	0xbceb92b3	-0.028756475
155	0x3ce72f39	0.02822076
156	0xbcc1b4cd	-0.023645783
157	0xbc048f53	-0.008090812
158	0x3c30f092	0.010799544
159	0xbc217854	-0.009855349
160	0x3cb14388	0.021638647
161	0x3d3eb290	0.04655701
162	0x3d82af61	0.06381107
163	0xbd09be3f	-0.0336287
164	0x3d60395c	0.054742202
165	0xbbd63f68	-0.0065383203
166	0x3d5db302	0.054125793
167	0x3cbaf670	0.022822589
168	0x3d7a40c9	0.06109694
169	0x3d5614bf	0.05226588
170	0x3ca3a57c	0.01997637
171	0x3cf6f25f	0.030144868
172	0x3cdcf668	0.026972964
173	0xbd31271f	-0.0432502
174	0xbc734703	-0.0148484735
175	0x3ced5a3b	0.02897369
176	0xbb4d388a	-0.0031314217
177	0x3d56b183	0.052415382
178	0x3d049f34	0.03237839
179	0xbcd5d86b	-0.026104173
180	0xbbe0834d	-0.00685159
181	0xbd2824d0	-0.041050732
182	0xbd8d63c0	-0.069037914
183	0x3d16e52a	0.03683964
184	0x3d5cce02	0.0539074
185	0x39b82e74	0.00035129825
186	0x3cfa1f00	0.03053236
187	0xbbfe36eb	-0.0077580116
188	0xbd1cf192	-0.038316317
189	0xbc42ab8d	-0.011881721
190	0x3d1f4981	0.03888846
191	0xbc99573a	-0.01871835
192	0x3c6ee545	0.014581029
193	0xbd3474c9	-0.044056688
194	0x3c24ee20	0.010066539
195	0xbc8e6b3f	-0.017385123
196	0xbcb44e83	-0.022010094
197	0x3cb3cb84	0.02194763
198	0x3ca163be	0.019700881
199	0xbc70cc8c	-0.014697205
200	0xbb61ca96	-0.0034453026
201	0xbcc803ea	-0.024415929
202	0x3bf50505	0.007477405
203	0xbd3cccdd	-0.04609381
204	0xbcf902fd	-0.030396933
205	0x3cfbd419	0.030740784
206	0xbc3d15e4	-0.011540864
207	0xbdc4c2bf	-0.09607457
208	0xbd78762d	-0.060659576
209	0x3ca6113b	0.020271888
210	0x3d053f50	0.032531083
211	0xbbe52a85	-0.006993594
212	0xbd56aca8	-0.05241075
213	0x3c1a7752	0.009427862
214	0x3cc3a7b3	0.023883676
215	0xbc4a499a	-0.01234665
216	0xb969bd47	-0.00022291123
217	0xbd8c20c4	-0.06842187
218	0xbb596f3e	-0.0033177878
219	0x3be32267	0.0069315913
220	0xbb7c3e85	-0.0038489413
221	0xbd614f2e	-0.055007152
222	0xbc812dc1	-0.015768887
223	0xbcfb401f	-0.030670224
224	0xbcf8b5fe	-0.030360218
225	0x3cefce5f	0.02927321
226	0x3cdb428e	0.026765134
227	0x3cc26399	0.023729132
228	0xbd0fe815	-0.03513344
229	0x3cd32a6b	0.025777062
230	0x3d35d2f1	0.044390623
231	0xbc57c1a6	-0.013168728
232	0x3cbe70a4	0.02324707
233	0xbc781445	-0.015141551
234	0x3c60075f	0.013673632
235	0x3d73c25a	0.05951152
236	0xbc33673f	-0.010949909
237	0x3c4a62cd	0.0123526575
238	0xbd197bb4	-0.037471488
239	0x3cd145b6	0.025545936
240	0x3bad7121	0.005293027
241	0x3d3c5e22	0.04598821
242	0x3b9975d5	0.004683236
243	0xbdc5a8f8	-0.09651369
244	0xbb953243	-0.004553111
245	0x3bca6401	0.006176472
246	0x3bb8ddf8	0.005641695
247	0x3c735d1b	0.014853741
248	0xbd2c5e6d	-0.04208224
249	0xbda266a3	-0.07929733
250	0x3cacd0a8	0.021095589
251	0xbc60ac78	-0.013712995
252	0xb9f09882	-0.00045889994
253	0x3bb9410e	0.005653507
254	0xbd761b70	-0.06008476
255	0x3d8bc124	0.06823948

embedding.conv2.conv.bias f4 [64]
0	0xbdafbc4b	-0.08580836
1	0xbc9e88b9	-0.019352304
2	0xbca5dfc1	-0.020248296
3	0xbc8e2968	-0.017353728
4	0xbd343ddb	-0.044004302
5	0xbdbb312c	-0.09140238
6	0xbd2e5cb8	-0.042568892
7	0xbc3af352	-0.011410551
8	0xbd18981c	-0.037254438
9	0x3b8f511c	0.0043736827
10	0xbc00899b	-0.007845308
11	0x3cb090c3	0.021553403
12	0xbbca0eba	-0.0061663063
13	0xbcdfddb3	-0.027327394
14	0xbd16e4df	-0.036839362
15	0xbd8263d0	-0.06366694
16	0xbbb6da31	-0.0055802097
17	0xbcd0def4	-0.025496937
18	0xbd78a704	-0.060706154
19	0xbd26b42c	-0.04069917
20	0xbd5cf04f	-0.053940114
21	0x3cbd7a3f	0.02312958
22	0x3c996644	0.018725522
23	0xbb074f26	-0.0020646541
24	0x3c95f4f3	0.018305277
25	0x3c1a3dab	0.009414117
26	0xbcd02f9c	-0.025413327
27	0x3d59f644	0.053213373
28	0xbd0167b1	-0.03159303
29	0x3c4e9142	0.012607874
30	0xbcb74184	-0.022370107
31	0x3c708956	0.014681181
32	0xbc824031	-0.01589975
33	0xbcff4f1b	-0.03116565
34	0xbd308b54	-0.043101624
35	0xbb511539	-0.0031903519
36	0x3d2e08a5	0.042488713
37	0xbd21327c	-0.039354786
38	0xbdaa769a	-0.08323403
39	0xbd01bc5f	-0.031673785
40	0x3d520ff3	0.05128474
41	0xbdb023b2	-0.08600558
42	0xbcab5db3	-0.020918703
43	0xbba1fe57	-0.0049436498
44	0x3bb11fd3	0.005405405
45	0xbdb04cb3	-0.08608379
46	0xbd8c792b	-0.068590485
47	0xbcb0cfd7	-0.02158348
48	0xbc98da48	-0.018658772
49	0x3cddc68f	0.02707222
50	0xbbadabaf	-0.0053000073
51	0xbd404527	-0.04694095
52	0xbda433dd	-0.08017705
53	0xbd2926aa	-0.04129664
54	0x3d07f467	0.033192065
55	0xbd3246e5	-0.04352464
56	0xbd51c667	-0.0512146
57	0xbddc7d64	-0.10766104
58	0x3c4de773	0.012567389
59	0xbd0a218e	-0.033723406
60	0xbc6f2744	-0.014596764
61	0x3c82e60f	0.015978841
62	0x3cd99f5d	0.026565248
63	0x3c9fd816	0.019512217

embedding.conv2.batch_norm_layer.weight f4 [64]
0	0x3ede4e6d	0.4341921
1	0x3f32835e	0.697317
2	0x3f0d236b	0.5513217
3	0x3f34b9c3	0.7059595
4	0x3f13a857	0.5767874
5	0x3e67a5f1	0.22621895
6	0x3f30b08f	0.6901941
7	0x3f52c64d	0.8233383
8	0x3f005d2a	0.5014216
9	0x3f427be2	0.7597028
10	0x3e9db077	0.30798694
11	0x3ed041d8	0.40675235
12	0x3eee495b	0.4654034
13	0x3e9dd495	0.3082625
14	0x3ed20d43	0.41025743
15	0x3ebb4b9f	0.36581132
16	0x3f3f12bd	0.7463797
17	0x3f700508	0.9375768
18	0x3efbb762	0.49163347
19	0x3f0d01b5	0.5508073
20	0x3ee6b263	0.45057973
21	0x3f384946	0.71986806
22	0x3f03f115	0.51539737
23	0x3f4acc1d	0.792177
24	0x3ecd7b7d	0.40133277
25	0x3ef47db6	0.4775216
26	0x3f47522d	0.77859765
27	0x3f2d69aa	0.67739356
28	0x3f34ece1	0.7067395
29	0x3f04b2b2	0.5183517
30	0x3f058f3b	0.5217168
31	0x3f16e9f4	0.58950734
32	0x3f1c91a2	0.6115972
33	0x3ebae984	0.36506283
34	0x3ea773b0	0.3270545
35	0x3f177cce	0.5917481
36	0x3efe22e7	0.49636003
37	0x3f4c21f5	0.79739314
38	0x3e51f093	0.20501928
39	0x3efdbe14	0.4955908
40	0x3f69aac5	0.912762
41	0x3ed01c9a	0.4064682
42	0x3f33d7ed	0.7025135
43	0x3ef91963	0.4865218
44	0x3ea72b68	0.32650304
45	0x3e89dfef	0.2692866
46	0x3e4cefed	0.200134
47	0x3f0966d5	0.53672534
48	0x3f232ba7	0.63738483
49	0x3f3209f9	0.6954647
50	0x3e907b65	0.28219143
51	0x3f0434a7	0.5164284
52	0x3e7a7bfd	0.2446136
53	0x3f71cb6c	0.9445102
54	0x3f5f0bcd	0.8712738
55	0x3e8f74fb	0.28018937
56	0x3eaacf45	0.3336126
57	0x3e45e897	0.19327007
58	0x3ec8f70a	0.39250976
59	0x3f1cf041	0.613041
60	0x3f33c8dc	0.7022836
61	0x3ee3c9c9	0.44489887
62	0x3f47d47b	0.78058594
63	0x3f235264	0.63797593

embedding.conv2.batch_norm_layer.bias f4 [64]
0	0xbd25b449	-0.040455136
1	0xbdb5c174	-0.08874789
2	0xbde9acfb	-0.114099465
3	0xbd48ee19	-0.049055193
4	0xbd20447c	-0.03912781
5	0xbd818818	-0.06324786
6	0xbdf1d4b8	-0.11808151
7	0xbdf7b8be	-0.12095784
8	0xbcdea84d	-0.027179861
9	0xbe1bc91d	-0.15213437
10	0xbdab8a6e	-0.08376013
11	0xbd8914bf	-0.0669341
12	0xbd4b7095	-0.049667913
13	0xbc86139c	-0.016366772
14	0xbd2c1f56	-0.04202207
15	0xbd808d1d	-0.06276915
16	0xbe0ae974	-0.13565618
17	0xbd7b920b	-0.061418574
18	0xbddc9671	-0.10770882
19	0xbd8bdd74	-0.06829348
20	0xbd5a385e	-0.053276412
21	0xbdc1bc25	-0.09459714
22	0xbd943a1a	-0.072376445
23	0xbe1622df	-0.1466174
24	0xbd2410be	-0.04005503
25	0xbd128f19	-0.035781
26	0xbd9e4d3f	-0.07729577
27	0xbdd761c8	-0.10516697
28	0xbe105e1e	-0.14098403
29	0xbd7334c2	-0.059376486
30	0xbe00b7ac	-0.12570065
31	0xbdab2872	-0.08357324
32	0xbde46b6f	-0.11153304
33	0xbd30a3b7	-0.04312488
34	0xbca2d44d	-0.019876624
35	0xbd944a49	-0.07240731
36	0xbd97d475	-0.0741357
37	0xbdc022d5	-0.09381644
38	0xbbddc852	-0.006768265
39	0xbd8947c5	-0.06703142
40	0xbe146e19	-0.14495124
41	0xbd2c2f75	-0.042037446
42	0xbdd764f6	-0.10517304
43	0xbd774510	-0.060368598
44	0xbd491406	-0.04909136
45	0xbd494ac8	-0.049143583
46	0xbd07aafb	-0.033122044
47	0xbd4ee8aa	-0.050514854
48	0xbd618b01	-0.055064205
49	0xbdb79d55	-0.089655556
50	0xbd17e1a0	-0.037080407
51	0xbd5a8fee	-0.05335992
52	0xbd0a044c	-0.033695504
53	0xbdb186ad	-0.086682655
54	0xbdcf6bb5	-0.10127965
55	0xbd74015e	-0.059571616
56	0xbd5e4860	-0.05426824
57	0xbb891d5f	-0.0041844095
58	0xbdbb163f	-0.091351025
59	0xbd3bbc93	-0.045834135
60	0xbe0a452f	-0.13502954
61	0xbde481bb	-0.111575566
62	0xbe002cee	-0.1251714
63	0xbdbbcbc9	-0.09169728

embedding.conv2.batch_norm_layer.running_mean f4 [64]
0	0x3dda7437	0.106666975
1	0x3eaf88c0	0.3428402
2	0x3ecf59c5	0.40498176
3	0x3e955b04	0.29171002
4	0x3e73d37e	0.23811147
5	0x3cb5aa12	0.022175822
6	0x3e394ac6	0.1809493
7	0x3ebb26c7	0.36553022
8	0x3e14a462	0.14515832
9	0x3ec23da8	0.37937665
10	0x3d73459e	0.059392564
11	0x3e104fc8	0.14092934
12	0x3df4d23e	0.11954163
13	0x3d65390e	0.055962615
14	0x3deb7c10	0.114982724
15	0x3d79db54	0.061000183
16	0x3e74f9c1	0.23923399
17	0x3e0b2f66	0.135923
18	0x3e8736ac	0.264089
19	0x3eb6f8cd	0.35736695
20	0x3e17c077	0.14819513
21	0x3ee73137	0.45154735
22	0x3e1689e6	0.14701042
23	0x3ef283c0	0.47366142
24	0x3dad9abc	0.08476779
25	0x3dcb84de	0.09937452
26	0x3e481167	0.19537888
27	0x3f1c0267	0.60941166
28	0x3e834215	0.25636354
29	0x3e8cbba5	0.2748691
30	0x3e88d8e2	0.26727968
31	0x3e076e34	0.13225633
32	0x3e67853f	0.22609423
33	0x3d681b4b	0.056666654
34	0x3d2c4ef4	0.042067483
35	0x3ee02d4f	0.43784568
36	0x3eb89d44	0.36057484
37	0x3e3e38c1	0.18576337
38	0x3cd2eeba	0.0257486
39	0x3def6d1a	0.11690731
40	0x3ed792df	0.4210424
41	0x3de46192	0.111514226
42	0x3e257611	0.1615832
43	0x3e1faf16	0.15594134
44	0x3d7730ca	0.060349263
45	0x3d76e0b3	0.060272884
46	0x3d1892af	0.037249263
47	0x3de7a581	0.11310864
48	0x3e1ae6da	0.15127125
49	0x3e61c2ed	0.22047015
50	0x3cac2f8e	0.02101877
51	0x3e3d9c53	0.18516664
52	0x3d955ef6	0.07293503
53	0x3e803725	0.25042072
54	0x3ebc36da	0.36760598
55	0x3d7b647e	0.061375134
56	0x3db8051f	0.08985352
57	0x3d473905	0.048638362
58	0x3e091c7c	0.13389772
59	0x3e2cca26	0.16873989
60	0x3e3a4519	0.18190421
61	0x3e8143fb	0.25247177
62	0x3e412a8f	0.18863891
63	0x3e08e6fd	0.13369365

embedding.conv2.batch_norm_layer.running_var f4 [64]
0	0x3da2fe91	0.07958711
1	0x3e0c764f	0.13717006
2	0x3e593fad	0.21215697
3	0x3e33999a	0.17539063
4	0x3ddaabb2	0.106772795
5	0x3ca23d8b	0.019804737
6	0x3e0cbbcc	0.13743514
7	0x3e90ba11	0.28266957
8	0x3de2ba77	0.110707216
9	0x3e52209b	0.2052025
10	0x3d3c35f4	0.04594989
11	0x3d91703f	0.07101487
12	0x3d64e298	0.05588016
13	0x3d3e4511	0.046452586
14	0x3db28dcb	0.08718451
15	0x3d4a4c28	0.049389035
16	0x3e3ee7eb	0.18643157
17	0x3e082322	0.13294652
18	0x3e741fb3	0.23840217
19	0x3e1e5e81	0.15465738
20	0x3e0c76f5	0.13717254
21	0x3e19b8ac	0.15011853
22	0x3d8be074	0.068299204
23	0x3e642ed0	0.22283483
24	0x3d36b3b0	0.044604957
25	0x3d984780	0.074355125
26	0x3e5541bd	0.20825858
27	0x3ea6a704	0.32549298
28	0x3e7ce52e	0.246968
29	0x3dfa792a	0.122301415
30	0x3e46e469	0.19423069
31	0x3daf6fad	0.08566222
32	0x3e12918c	0.14313334
33	0x3d1672d5	0.036730606
34	0x3d0327b2	0.03202028
35	0x3e6bf29d	0.23041768
36	0x3e3f29b6	0.18668255
37	0x3e3038ee	0.17209217
38	0x3c950d8e	0.01819494
39	0x3dd3989d	0.10331843
40	0x3e55e4f0	0.20888114
41	0x3df6a6cb	0.12043532
42	0x3e31c2df	0.17359494
43	0x3d84d13f	0.06485223
44	0x3d7129cf	0.058877762
45	0x3daeee21	0.08541513
46	0x3d074c90	0.033032
47	0x3daef37b	0.08542534
48	0x3d953319	0.07285137
49	0x3e282f92	0.16424397
50	0x3c8fabbb	0.017537942
51	0x3e4d20ae	0.20031998
52	0x3d6c919a	0.057756044
53	0x3e194b48	0.14970124
54	0x3e092903	0.13394551
55	0x3d3e0e0d	0.04640012
56	0x3dab3050	0.08358824
57	0x3d2b0d49	0.041760717
58	0x3dc90386	0.09815125
59	0x3d942576	0.072337076
60	0x3e1781b8	0.14795578
61	0x3df8012e	0.121096
62	0x3de15410	0.11002362
63	0x3e208d34	0.15678865

embedding.conv3.conv.weight f4 [64, 64, 3, 3]
0	0x3b9faa59	0.004872602
1	0x3c8e232a	0.017350752
2	0xbd102b1b	-0.03519736
3	0xbd02ea82	-0.031961925
4	0x3b0919d0	0.0020919926
5	0xbc588da3	-0.013217363
6	0xbcf1956f	-0.0294902
7	0xbd30ad06	-0.043133758
8	0xbd60fe42	-0.05492998
9	0x3c1d5476	0.009602657
10	0xbd0d04d5	-0.034428436
11	0xbcfdeb29	-0.030995922
12	0x3c8d136c	0.017221175
13	0x3c051742	0.008123221
14	0xbd067a86	-0.03283169
15	0xbd2e2450	-0.0425151
16	0x3d1ea612	0.038732596
17	0xbcad759d	-0.021174246
18	0x3d0a599e	0.03377687
19	0xbbbe1ef0	-0.005802028
20	0xbbfae3d0	-0.007656552
21	0x3c303354	0.010754425
22	0xbd9e9af0	-0.07744396
23	0xbd026923	-0.031838547
24	0x3d236022	0.0398866
25	0x3d16ce43	0.0368178
26	0xbb410eb1	-0.002945822
27	0x3c9d66ea	0.019214112
28	0xbc1c720a	-0.009548673
29	0x3aeea9d5	0.0018208573
30	0xbd884faa	-0.0665582
31	0xbbaf1cfe	-0.0053440323
32	0xbc9d6a50	-0.019215733
33	0xbcd6eea2	-0.026236836
34	0x3bc624cf	0.0060468684
35	0x3cf082d1	0.029359253
36	0xbba24b33	-0.004952812
37	0xbcdb9e83	-0.026808983
38	0xbd153c85	-0.03643467
39	0xbbbd0de3	-0.0057694777
40	0x3d0f61f5	0.03500553
41	0xbcd559db	-0.026043823
42	0xbd10a7d2	-0.035316296
43	0x3c58d43f	0.013234197
44	0x3cbf6919	0.023365544
45	0x3c4e496e	0.012590749
46	0x3d983e2c	0.07433733
47	0xbc5fafd6	-0.013652762
48	0xbd83df9d	-0.06439135
49	0xbd8303bb	-0.06397196
50	0x3cd30cfd	0.02576303
51	0x3d3671d0	0.044542134
52	0xbcba10f9	-0.022713171
53	0xbc3679dc	-0.011137452
54	0x3c0d7aa4	0.008635197
55	0x3ce212d3	0.027596867
56	0x3d151f92	0.03640706
57	0xbc83e746	-0.01610149
58	0x3c5a74c8	0.013333507
59	0xbd248ece	-0.04017525
60	0x3ca742c0	0.020417571
61	0x3d09f315	0.033679087
62	0x3c6cbbf8	0.014449112
63	0xbc44a113	-0.012001294
64	0x3bbeb720	0.00582017
65	0xbd0036e1	-0.031302337
66	0xbd0172a2	-0.031603463
67	0xbd842252	-0.064518586
68	0xbc8d63e2	-0.017259542
69	0x3c836d21	0.016043248
70	0xbbda490d	-0.0066615404
71	0x3d1fda49	0.039026532
72	0x3bd6b354	0.0065521393
73	0x3cfeb61b	0.031092694
74	0x3d7734fe	0.06035327
75	0x3cd55bc3	0.026044732
76	0xbca28ff1	-0.019844027
77	0xbd37db7c	-0.04488705
78	0x3c81f27d	0.015862698
79	0x3c9f049d	0.01941138
80	0x3d888a11	0.06666959
81	0x3c1f1039	0.009708458
82	0xbcf5031e	-0.029908713
83	0xbccc4f6a	-0.024940211
84	0x3c91760b	0.017756483
85	0xbd3a5054	-0.045486763
86	0xbcab3488	-0.020899072
87	0xbd0a30c2	-0.033737905
88	0x3b1810f2	0.002320346
89	0x3d26f5dd	0.040761817
90	0xbce5d859	-0.028057264
91	0xbcfd9fba	-0.030959953
92	0xbb6552f3	-0.0034992069
93	0xbc804198	-0.015656278
94	0x3d0ea1df	0.03482234
95	0xbc837cb4	-0.016050674
96	0x3d272b01	0.040812496
97	0x3d5a79dc	0.05333887
98	0x3d7d7a84	0.061884418
99	0x3d505f2a	0.050872006
100	0xbc2bcffd	-0.0104866
101	0xbc07b4bc	-0.0082828365
102	0xb81a107d	-3.6731817e-05
103	0x3c03be67	0.008041001
104	0x3c2dbe5a	0.010604465
105	0x3ce14ae1	0.027501525
106	0xbd0fd782	-0.035117634
107	0xbd3f4fa2	-0.046706803
108	0xbc84de3e	-0.016219255
109	0xbc0ddc46	-0.008658474
110	0x3be9fddf	0.0071408595
111	0x3b5db5d7	0.0033830309
112	0xbd29c52d	-0.041447807
113	0xbd82bbb7	-0.0638346
114	0xbd16d556	-0.036824547
115	0xbd059b4c	-0.032618806
116	0xbd98a20b	-0.07452782
117	0x3c2827da	0.010263408
118	0x3996fe3c	0.0002879965
119	0xbd6011aa	-0.054704346
120	0xbd133110	-0.03593546
121	0xbd42bd3b	-0.047543745
122	0x3cf885f1	0.030337306
123	0xbcee2375	-0.029069642
124	0x3d808455	0.0627524
125	0x3cc24c09	0.023717897
126	0x3cc4f92d	0.024044598
127	0xbd2e0984	-0.042489544
128	0x3d7289fa	0.059213616
129	0xbd1b9822	-0.037986882
130	0x3b3dd2fb	0.0028964865
131	0xbd07d9b8	-0.033166617
132	0xbc79ce37	-0.015246919
133	0x3bcb6c12	0.0062079513
134	0xbc45b7f1	-0.012067781
135	0xbd078589	-0.033086333
136	0x3b730a69	0.0037085062
137	0xbc8f807e	-0.017517325
138	0xbcfbdfba	-0.03074633
139	0x3cac98de	0.021068987
140	0xbd94a50b	-0.07258042
141	0x3c964a2d	0.018345917
142	0xbd28e877	-0.04123732
143	0xbce2948e	-0.027658727
144	0x3bda1259	0.0066550192
145	0xbcbd1293	-0.023080146
146	0x3c81b0bc	0.015831344
147	0xbc9a870a	-0.01886322
148	0xbcaab461	-0.020837964
149	0xbcdc69cd	-0.026905918
150	0x3ccb692d	0.024830425
151	0x3d26492d	0.04059713
152	0xbcf30208	-0.029664055
153	0xba58180b	-0.0008243329
154	0x3c96439c	0.018342786
155	0x3be65e62	0.0070302943
156	0xbd237d98	-0.039914697
157	0x3aecf604	0.001807869
158	0xbccf777f	-0.025325535
159	0xbc91ee82	-0.017813925
160	0x3d097340	0.033557177
161	0x3b940c98	0.004518103
162	0x3c641017	0.013919852
163	0xbbaa1d5c	-0.005191488
164	0xbd2ef2ae	-0.042711906
165	0xbcd952df	-0.026528774
166	0x3cb2e653	0.021838343
167	0xbc4854f6	-0.0122272875
168	0x3d31482a	0.04328171
169	0x3d290990	0.041268885
170	0x3cf6bdf4	0.030119874
171	0x3c8f431c	0.017488055
172	0xbd5b554a	-0.053548135
173	0xbbc15f9e	-0.005901291
174	0xbc68c5c7	-0.01420731
175	0x3ce6969a	0.028147984
176	0xbd116ce7	-0.035504248
177	0x3cab2257	0.020890398
178	0xbc84f47b	-0.016229859
179	0x3cb55f4e	0.022140171
180	0x3d30374b	0.04302148
181	0xbba7d84a	-0.005122219
182	0xbd253394	-0.04033239
183	0xbd0a73f8	-0.033802003
184	0xbd499365	-0.049212832
185	0xbd2e528c	-0.04255919
186	0xbc347c9e	-0.011016039
187	0xbb9622ca	-0.004581784
188	0xbccbdab7	-0.024884565
189	0x3b42438b	0.002964231
190	0xbca04aa2	-0.019566838
191	0xbc1f896b	-0.009737353
192	0xbd754a7d	-0.05988549
193	0xbceb3105	-0.028709898
194	0x3c0a5993	0.008444208
195	0x3d0f9945	0.03505828
196	0x3d02c6ca	0.03192786
197	0x3ca5f0f1	0.020256491
198	0x3ce012ef	0.027352778
199	0xbc836ffb	-0.016044607
200	0xbd4d0e6b	-0.05006258
201	0x3c26784f	0.01016052
202	0xbce55b1e	-0.02799755
203	0xbd0b6cdf	-0.034039374
204	0xbcb4067a	-0.021975745
205	0x3cec43c0	0.0288409
206	0xbbec81cf	-0.007217623
207	0xbd131735	-0.035910804
208	0xbb5deb7a	-0.0033862279
209	0xbd43ef3f	-0.047835585
210	0xbd6299bc	-0.055322394
211	0xbccdcdce	-0.02512255
212	0x3baa9048	0.005205188
213	0xbcf6c710	-0.030124217
214	0x3c8674d2	0.016413126
215	0xbc421486	-0.0118457135
216	0xb9c76c5b	-0.0003803697
217	0xbc2261da	-0.009911025
218	0xbb11cc99	-0.0022247194
219	0xbd9015f6	-0.07035439
220	0x3b88e06a	0.004177143
221	0xbdbec72a	-0.09315331
222	0x3c2a97da	0.010412181
223	0xbd77060d	-0.060308505
224	0xbd4a44fe	-0.049382202
225	0xbd066556	-0.032811485
226	0x3c9aee02	0.01891232
227	0xbc904183	-0.017609363
228	0x3b83948c	0.004015511
229	0xbdb6a302	-0.0891781
230	0xbd0350be	-0.032059424
231	0xbd0ec221	-0.034853105
232	0x3c41fcb8	0.011840038
233	0xbcfa56ae	-0.03055891
234	0xbb422a2f	-0.0029627194
235	0xbc6eabf0	-0.01456736
236	0x3d7c8b7a	0.061656453
237	0x3cf6eff0	0.030143708
238	0x3b310d0d	0.0027015836
239	0x3c86ed68	0.016470626
240	0x3c046bab	0.008082311
241	0x3bc7ddf8	0.006099459
242	0x3c151841	0.009100021
243	0xbc22f6b6	-0.009946516
244	0xbd08c4ee	-0.03339093
245	0x3c8ecf51	0.01743284
246	0x3c329d00	0.0109016895
247	0xbd32dbe1	-0.043666724
248	0x3c9afb7b	0.018918743
249	0x3d13c3d0	0.036075413
250	0xbb34b719	-0.0027574955
251	0x3d06b434	0.0328867
252	0xbb8a2b64	-0.0042165983
253	0x3c716f64	0.01473603
254	0x3d1dc950	0.038522065
255	0x3d245d67	0.040128138

embedding.conv3.conv.bias f4 [64]
0	0xbcb8da2a	-0.022564966
1	0x3daefb82	0.08544065
2	0xbd8502a1	-0.06494642
3	0xbcc8aa41	-0.024495246
4	0xbd4a8ec9	-0.049452577
5	0x3b56832a	0.0032731988
6	0x3da13102	0.078706756
7	0x3d7bf5bf	0.06151366
8	0xbda4de65	-0.08050231
9	0xbd47dbbd	-0.048793543
10	0xbc08bc04	-0.008345608
11	0x3c804ff2	0.01566312
12	0x3c4f19d0	0.0126404315
13	0xbd8cb53f	-0.068705074
14	0xbd309296	-0.043108545
15	0xbd04b43f	-0.03239846
16	0xbd1fefd9	-0.039047096
17	0xbd25a368	-0.04043904
18	0x3cd26eea	0.025687654
19	0xbd7c1ae4	-0.061549082
20	0x3adb7d50	0.001674572
21	0xbd81478c	-0.063124746
22	0xbd942b88	-0.072348654
23	0xbcdd737e	-0.02703261
24	0xbcf18c90	-0.02948597
25	0xbc887549	-0.016657488
26	0xbdb5f814	-0.08885208
27	0x3bc2978e	0.005938477
28	0xbcc0f775	-0.023555497
29	0x3d46bc97	0.048519697
30	0x3bcfda41	0.0063431566
31	0x3d3e0f58	0.04640135
32	0xbd932052	-0.07183899
33	0xbd4eea3d	-0.050516356
34	0xbca57cb5	-0.020201067
35	0x3aa6b4b5	0.001271865
36	0xbd8363a3	-0.064154886
37	0xbdb0018e	-0.085940465
38	0x3d4a4d03	0.04938985
39	0xbcc57356	-0.024102848
40	0xbc888800	-0.016666412
41	0xbd3c8d1b	-0.046033006
42	0xbde3d56f	-0.111246936
43	0xbc4ff230	-0.012692019
44	0xbd7a8958	-0.061166137
45	0xbcb13f5e	-0.021636661
46	0xbd367e26	-0.0445539
47	0xbcbeebf7	-0.023305876
48	0xbd0335ad	-0.03203361
49	0xbd851203	-0.06497576
50	0xbd2a6f14	-0.04160984
51	0x3c892931	0.016743274
52	0x3d2083eb	0.039188307
53	0x3c069425	0.008214031
54	0xbd85de66	-0.0653656
55	0x3baf34e6	0.005346882
56	0x3d1cb690	0.038260043
57	0x3b90d91f	0.004420414
58	0xbcb7e954	-0.022450127
59	0x3cf4f040	0.029899716
60	0x3c6bc733	0.0143907545
61	0xbc959a5e	-0.018262085
62	0xbd5261a1	-0.051362637
63	0x3c590c27	0.013247526

embedding.conv3.batch_norm_layer.weight f4 [64]
0	0x3f5454b1	0.8294173
1	0x3f45fa74	0.77335286
2	0x3f2974ad	0.6619366
3	0x3f237855	0.6385549
4	0x3e8fafb7	0.28063747
5	0x3eba2856	0.363589
6	0x3f61678a	0.88048613
7	0x3f556dbf	0.83370584
8	0x3ea19f7f	0.31566998
9	0x3f524ff8	0.8215327
10	0x3f27295d	0.6529749
11	0x3f64ec98	0.89423513
12	0x3f0e3432	0.55548394
13	0x3f4621d4	0.7739537
14	0x3ef08a86	0.46980685
15	0x3f20bdf9	0.62789875
16	0x3e8ba624	0.27275193
17	0x3ed3bc6e	0.41354698
18	0x3f60f509	0.87873894
19	0x3f068cf4	0.5255883
20	0x3f18c51f	0.5967578
21	0x3ed45b58	0.4147594
22	0x3ef5a0aa	0.4797414
23	0x3e8dc3fa	0.2768858
24	0x3e5015d7	0.20320831
25	0x3f3bed9b	0.7340943
26	0x3e97e1f7	0.29664585
27	0x3f58b1c6	0.8464626
28	0x3f590b26	0.84782636
29	0x3f62d38d	0.8860405
30	0x3f1830b4	0.59449315
31	0x3f418d98	0.7560668
32	0x3ea6b8d2	0.32562882
33	0x3f4a5759	0.7903953
34	0x3ebbd9d6	0.36689633
35	0x3f4b4156	0.7939657
36	0x3ea29f98	0.31762385
37	0x3ea238f2	0.3168407
38	0x3f3976cd	0.724469
39	0x3edf7176	0.4364125
40	0x3f5438bc	0.8289907
41	0x3f363da3	0.711878
42	0x3e4cbcf8	0.19993961
43	0x3f181b39	0.5941654
44	0x3f0c3210	0.5476389
45	0x3f39806d	0.7246159
46	0x3f194bd3	0.59881324
47	0x3f690729	0.9102655
48	0x3f4f6d87	0.810265
49	0x3e62858d	0.22121258
50	0x3e8ebabc	0.27876842
51	0x3f2b08ed	0.66810495
52	0x3f4d1055	0.80103046
53	0x3eafd3ff	0.34341428
54	0x3f122413	0.57086295
55	0x3ef26c94	0.47348464
56	0x3f6b0cb5	0.91816264
57	0x3e9f6549	0.31131962
58	0x3ea1cf1f	0.31603333
59	0x3f1d28ee	0.6139058
60	0x3f00424f	0.5010118
61	0x3ed7570b	0.42058596
62	0x3e6971a0	0.22797251
63	0x3ed72714	0.42022002

embedding.conv3.batch_norm_layer.bias f4 [64]
0	0xbdd03efd	-0.10168264
1	0xbde340e6	-0.11096363
2	0xbd864c28	-0.065574944
3	0xbe086883	-0.13321118
4	0xbc5191a7	-0.012791074
5	0xbc3e202b	-0.011604349
6	0xbdf80c7c	-0.12111756
7	0xbe1547fb	-0.1457824
8	0xbdc4c5ee	-0.096080646
9	0xbdb6a71e	-0.08918594
10	0xbde59309	-0.11209685
11	0xbdc3f80b	-0.09568795
12	0xbd0ca8a2	-0.03434051
13	0xbd505851	-0.050865475
14	0xbde59010	-0.11209118
15	0xbd95851e	-0.07300781
16	0xbd65f3b1	-0.056140605
17	0xbd9b25a5	-0.075755395
18	0xbe194462	-0.14967492
19	0xbbb16776	-0.005413945
20	0xbdcbe427	-0.09955626
21	0xbe0c6ba1	-0.13712932
22	0xbd9d12bb	-0.07669588
23	0xbda4e237	-0.080509596
24	0x3a0a2573	0.00052698626
25	0xbe098fe4	-0.13433796
26	0xbd007892	-0.031364985
27	0xbdbe417b	-0.09289833
28	0xbdde2e14	-0.108486325
29	0xbe1a7706	-0.15084466
30	0xbbe1c254	-0.006889621
31	0xbd418b9b	-0.04725228
32	0xbd6ca606	-0.05777552
33	0xbe1a7da5	-0.15086992
34	0xbda08df5	-0.07839576
35	0xbdb02f73	-0.086028
36	0xbdb09974	-0.08623019
37	0xbd3e1edf	-0.04641616
38	0xbe30189a	-0.17196885
39	0xbdc2d7ca	-0.09513815
40	0xbe09f062	-0.13470605
41	0xbdd34d40	-0.10317469
42	0xbd2f88e1	-0.042855147
43	0xbdc82974	-0.097735316
44	0xbd7480aa	-0.059693016
45	0xbd2136d7	-0.03935894
46	0xbd9c2bfc	-0.07625577
47	0xbd9f3d67	-0.077753834
48	0xbdf6cb8e	-0.12050544
49	0xbc364458	-0.011124693
50	0xbd8ec04f	-0.06970274
51	0xbd8b7e61	-0.06811214
52	0xbe09728f	-0.13422607
53	0xbd2ae856	-0.04172548
54	0xbdf21874	-0.1182107
55	0xbdbf95f3	-0.093547724
56	0xbe12802d	-0.14306708
57	0x3c615174	0.01375233
58	0xbdbafa4d	-0.09129772
59	0xbde19ada	-0.11015864
60	0xbe01db48	-0.12681305
61	0xbcfd8b53	-0.030950224
62	0xbcf4f2e5	-0.029900977
63	0xbd855214	-0.06509796

embedding.conv3.batch_norm_layer.running_mean f4 [64]
0	0x3e2c7e1d	0.16844983
1	0x3ee279e9	0.44233635
2	0x3db75ece	0.089536294
3	0x3e0cca07	0.13748942
4	0x3d573378	0.05253932
5	0x3d84efdb	0.06491061
6	0x3ed7ed5a	0.42173272
7	0x3eb59886	0.3546793
8	0x3d5e6b35	0.05430146
9	0x3e6f186f	0.23349164
10	0x3e2c9a79	0.16855802
11	0x3eb8952f	0.36051318
12	0x3ded8350	0.115973115
13	0x3e79ad4a	0.24382511
14	0x3e430434	0.19044572
15	0x3e48f648	0.19625199
16	0x3d39340c	0.04521565
17	0x3e0997b2	0.13436773
18	0x3e8f9d45	0.28049675
19	0x3d5a3f30	0.053282917
20	0x3e3397d7	0.17538391
21	0x3e149c9c	0.14512867
22	0x3e29cb41	0.16581441
23	0x3d9f7a14	0.077869564
24	0x3d10b368	0.035327345
25	0x3e9b3b9c	0.30318916
26	0x3d844ece	0.06460343
27	0x3e7cb0fa	0.24676886
28	0x3ee425fb	0.44560227
29	0x3ea3c791	0.31988195
30	0x3e19a0cf	0.1500275
31	0x3e4726e9	0.19448437
32	0x3d54054b	0.05176286
33	0x3ecf6537	0.40506908
34	0x3d9814c5	0.074258365
35	0x3ead1fa5	0.33813205
36	0x3e0c4979	0.13699903
37	0x3dbf7844	0.09349111
38	0x3ed3603e	0.41284364
39	0x3ddd1bf0	0.10796344
40	0x3ee33d9a	0.44382936
41	0x3efef546	0.49796504
42	0x3d0d830d	0.034548808
43	0x3e68b2f1	0.2272451
44	0x3e533e33	0.20629196
45	0x3dc9ca3b	0.098530255
46	0x3dab0b52	0.083517686
47	0x3eb02c28	0.3440869
48	0x3e809e05	0.2512056
49	0x3d936519	0.07197017
50	0x3dd386e4	0.10328463
51	0x3e5f76b8	0.21822631
52	0x3f0c44df	0.5479259
53	0x3dcb71e9	0.09933836
54	0x3e91019c	0.2832154
55	0x3e0e79c6	0.1391364
56	0x3eee44e8	0.46536946
57	0x3d6289d1	0.055307213
58	0x3d89d51d	0.06730101
59	0x3e8d6a86	0.27620333
60	0x3e64c460	0.22340536
61	0x3da62f1b	0.081144534
62	0x3cb98869	0.022648053
63	0x3e1f0402	0.15528873

embedding.conv3.batch_norm_layer.running_var f4 [64]
0	0x3e2c5183	0.16827969
1	0x3e9502c8	0.29103684
2	0x3d637f2a	0.055541195
3	0x3e0016e6	0.12508735
4	0x3d14f5ff	0.036367413
5	0x3d2e3d5f	0.042538997
6	0x3ebe399d	0.3715333
7	0x3e60047b	0.21876709
8	0x3d164801	0.036689762
9	0x3e28a872	0.16470507
10	0x3e2c1827	0.16806088
11	0x3e72a4a6	0.23695621
12	0x3d929006	0.071563765
13	0x3e815b58	0.25265002
14	0x3e14ec4c	0.14543265
15	0x3e4d44a4	0.20045716
16	0x3ce7d249	0.028298514
17	0x3dab6d28	0.08370429
18	0x3e8d6acf	0.2762055
19	0x3d0f5b34	0.034999087
20	0x3dfeb10e	0.12436114
21	0x3db46b2e	0.088095054
22	0x3e33b589	0.17549719
23	0x3d6165a5	0.055028576
24	0x3cbd299a	0.023091126
25	0x3e99c24c	0.3003105
26	0x3d3ce6ef	0.046118673
27	0x3e22385c	0.15841812
28	0x3eb9f54c	0.3631996
29	0x3e94d55e	0.29069036
30	0x3db5f6b7	0.08884948
31	0x3e1bc584	0.15212065
32	0x3d18e5c5	0.0373285
33	0x3eacbc98	0.33737636
34	0x3d6f5083	0.05842639
35	0x3e6ad4b9	0.2293271
36	0x3dd6dd28	0.10491401
37	0x3d6911e3	0.056901824
38	0x3e9e66c0	0.30937767
39	0x3da056bc	0.07829043
40	0x3ec02353	0.3752695
41	0x3ec70d50	0.38877344
42	0x3cbeeaee	0.023305383
43	0x3e1e05ad	0.15431853
44	0x3df61c3b	0.12017103
45	0x3d9425ee	0.07233797
46	0x3d8eb239	0.06967587
47	0x3e99a174	0.3000599
48	0x3e8f1038	0.2794206
49	0x3d2c3b9b	0.04204903
50	0x3dc66305	0.09686855
51	0x3e382ea1	0.17986538
52	0x3ec8f47c	0.39249027
53	0x3d56afda	0.0524138
54	0x3e8ab716	0.27092808
55	0x3e00c22c	0.1257407
56	0x3eb59d64	0.35471642
57	0x3d14262d	0.03616922
58	0x3d4082b7	0.04699966
59	0x3e63b76d	0.2223794
60	0x3e51eaf3	0.20499782
61	0x3d5d1086	0.053970836
62	0x3c8b3c16	0.016996425
63	0x3ddcaa4a	0.107746676
