matching_net-FCE-0.73-accuracy.pt (torch_old, 873907 bytes, 38 tensors)

embedding.conv1.conv.weight f4 [64, 1, 3, 3]
0.13175726 0.14719659 -0.29915172 -0.056141127 -0.014271325 -0.122791 0.20957355 0.24101622
-0.22945556 -0.13031809 0.2666857 0.015394645 -0.30750147 -0.08771003 0.29247662 -0.006964913
-0.25414786 -0.06144681 -0.23587048 -0.32260445 -0.055061482 0.28124458 0.08610134 0.12206796
0.13890281 -0.05340513 -0.1475956 0.14247444 -0.20794989 0.1160781 -0.31356764 -0.18917516
-0.3196372 0.19340676 -0.08084765 0.20639959 0.004463346 -0.08127669 0.08452567 -0.2856317
-0.07610086 -0.15382467 0.02049701 -0.23976094 0.12892313 0.007877373 0.0059086517 -0.029203976
-0.22942686 0.14215952 0.092134304 0.25914034 -0.14830835 -0.24421586 -0.2428059 0.2552295
0.14136498 -0.1405714 0.37023452 0.041124355 0.19857146 0.33013263 0.00014687832 0.15706435
-0.16650607 0.25324923 -0.19184466 0.031022042 -0.29628944 -0.030810455 -0.31022444 0.068508945
-0.02540178 -0.14112508 -0.1704908 -0.098968476 -0.09426263 -0.24792844 0.23831663 0.23040879
-0.17329358 -0.0667324 0.32188508 -0.09383003 -0.092446685 -0.019759567 0.20844075 0.0714235
0.16974798 0.15082455 0.06468343 0.29893953 -0.14798795 0.031156793 0.1889682 -0.019347945
-0.1443163 0.22706161 -0.03806873 -0.33584014 0.27949983 0.30485436 0.17690155 0.17325188
-0.08075251 0.23577574 -0.1565462 0.13269754 0.033390246 -0.123370826 0.13477789 0.16712411
-0.021832315 -0.099496976 0.124958195 -0.20637418 0.048173722 -0.06005011 0.07956875 -0.2357707
0.2588203 0.17205639 -0.12702237 0.1311864 0.05443365 0.1695985 0.26751828 0.32058826
0.2566041 -0.16844374 -0.06555552 0.11104252 0.1257193 -0.20382196 0.21004693 0.04349959
-0.28823665 0.23354349 -0.03603887 -0.09816226 0.22302954 0.26238284 -0.25219524 0.14770603
0.32563445 0.25822526 -0.083165996 -0.2075659 0.15898934 0.058906473 -0.2101068 -0.05141591
-0.1310163 -0.2110682 0.19429356 0.04139449 -0.09667121 0.2892648 -0.28991938 0.09515627
-0.22453426 0.088922486 0.019559989 0.2049157 -0.1486491 -0.14480646 -0.33300498 0.16261634
0.2747657 0.08513221 -0.019703228 0.19493523 0.27504164 -0.021782529 0.15348168 0.09085703
-0.18821913 -0.32016876 -0.23800339 -0.29632452 0.26494876 0.017393 0.2266638 -0.26841602
0.025579162 -0.25389358 -0.2254192 0.27531233 0.24486992 -0.1586621 0.038770102 0.081530035
-0.20423502 0.21015622 -0.2638657 0.114319004 0.2630262 -0.2507506 0.02099566 0.1868453
-0.17817073 0.12581515 -0.20650905 -0.083717056 0.1740777 -0.3648486 0.029429996 0.28005952
0.14513175 -0.030758074 -0.110656954 0.0559855 -0.0010268381 0.31654936 -0.09577631 -0.12606756
-0.29854318 -0.16753078 0.12634447 -0.2798923 0.22897942 0.027525231 0.30670124 0.020773208
-0.09609031 0.19157545 -0.23865649 -0.33129522 -0.11919875 -0.37051612 -0.22835247 0.019562207
-0.1583657 0.20108236 -0.2656598 0.26700094 -0.11963679 0.13318491 -0.24787426 -0.30613524
-0.26475093 -0.13335375 0.15043056 -0.28167582 0.32102117 -0.052843977 0.22486055 -0.2746861
0.17872283 -0.08304558 0.056878824 -0.20172949 0.22760773 0.18479335 0.026131324 0.3096787
00000000: 60eb 063e b4ba 163e 6a2a 99be 3df4 65bd
00000010: 47d2 69bc d979 fbbd 739a 563e f5cc 763e
00000020: 66f6 6abe 1b72 05be 078b 883e d239 7c3c
00000030: d570 9dbe 51a1 b3bd 7fbf 953e ed39 e4bb
00000040: ab1f 82be a6af 7bbd 0888 71be 692c a5be
00000050: 2688 61bd 4aff 8f3e e655 b03d c4fe f93d
00000060: 8a3c 0e3e 56bf 5abd 4d23 17be d2e4 113e
00000070: d1f0 54be 5bba ed3d f08b a0be 22b7 41be
00000080: 7da7 a3be 6c0c 463e 7493 a5bd 6a5a 533e
00000090: 4341 923b 6574 a6bd cb1b ad3d 513e 92be
000000a0: c5da 9bbd 3784 1dbe 58e9 a73c e483 75be
000000b0: 6d04 043e 1910 013c 5d9d c13b 2d3d efbc
000000c0: e0ee 6abe 4492 113e e9b0 bc3d 0bae 843e
000000d0: 25de 17be b913 7abe 1ca2 78be 71ad 823e
000000e0: fbc1 103e f3f1 0fbe 618f bd3e 0372 283d
000000f0: 5156 4b3e 2507 a93e 5903 1a39 7ad5 203e
00000100: 9180 2abe e2a9 813e ed72 44be f021 fe3c
00000110: 40b3 97be 3566 fcbc bdd5 9ebe 6b4e 8c3d
00000120: 6517 d0bc 1883 10be 2495 2ebe fcaf cabd
00000130: c40c c1bd f4e0 7dbe 4609 743e 48f0 6b3e
00000140: df73 31be ffaa 88bd 1fce a43e f529 c0bd
00000150: b054 bdbd d1de a1bc 7e71 553e 7c46 923d
00000160: 6ad2 2d3e c071 1a3e bf78 843d 9a0e 993e
00000170: 278a 17be 883c ff3c e180 413e 957f 9ebc
00000180: a7c7 13be d782 683e f5ed 1bbd 3df3 abbe
00000190: 9a1a 8f3e df15 9c3e ae25 353e f168 313e
000001a0: 9261 a5bd 326f 713e a64d 20be dde1 073e
000001b0: 36c4 083d d8a9 fcbd 3703 0a3e 9522 2b3e
000001c0: afd9 b2bc 12c5 cbbd 15ea ff3d c153 53be
000001d0: cf51 453d 1bf7 75bd f1f4 a23d e06d 71be
000001e0: 1884 843e 8d2f 303e 2712 02be ba55 063e
000001f0: d2f5 5e3d 3bab 2d3e 28f8 883e 2524 a43e
00000200: 9d61 833e 847c 2cbe f941 86bd 436a e33d
00000210: 8fbc 003e b4b6 50be 8b16 573e a02c 323d
00000220: c193 93be 0626 6f3e 7f9d 13bd 4c09 c9bd
00000230: db61 643e 0b57 863e bc1f 81be 4040 173e
00000240: 8fb9 a63e 1a36 843e ef52 aabd 288c 54be
00000250: 1ace 223e ea47 713d 3d26 57be 7d99 52bd
00000260: 2329 06be 4322 58be e4f4 463e 458d 293d
00000270: 8efb c5bd 841a 943e 5070 94be 4ae1 c23d
00000280: 4fec 65be fe1c b63d 453c a03c 6cd5 513e
00000290: 7837 18be 2548 14be a17f aabe e684 263e
000002a0: 17ae 8c3e cc59 ae3d aa68 a1bc 1a9d 473e
000002b0: 42d2 8c3e 4671 b2bc 4d2a 1d3e 4013 ba3d
000002c0: 84bc 40be 29ed a3be 29b7 73be d9b7 97be
000002d0: 5da7 873e c47b 8e3c 8e1a 683e d36d 89be
000002e0: 648b d13c 57fe 81be 4ad4 66be bdf5 8c3e
000002f0: 2ebf 7a3e 5178 22be 66cd 1e3d 38f9 a63d
00000300: fc22 51be 3133 573e 6819 87be 1520 ea3d
00000310: 5fab 863e 6262 80be 17ff ab3c 6054 3f3e
00000320: 6372 36be b0d5 003e 1c77 53be d973 abbd
00000330: 6d41 323e 70cd babe 2d17 f13c f663 8f3e
00000340: 6b9d 143e 5bf8 fbbc 1da0 e2bd 0d51 653d
00000350: f896 86ba c212 a23e 5f26 c4bd db17 01be
00000360: a7da 98be 308d 2bbe 7260 013e 0b4e 8fbe
00000370: 9579 6a3e 987c e13c f207 9d3e 932c aa3c
00000380: ffca c4bd 5b2c 443e 5e62 74be 879f a9be
00000390: 791e f4bd 4ab4 bdbe 3bd5 69be ec40 a03c
000003a0: 9e2a 22be 89e8 4d3e 9004 88be 59b4 883e
000003b0: 2204 f5bd a061 083e c0d2 7dbe c2bd 9cbe
000003c0: 6f8d 87be e38d 08be 780a 1a3e d037 90be
000003d0: e35c a43e ed72 58bd d841 663e a8a3 8cbe
000003e0: 1e03 373e cd13 aabd c5f9 683d 2d92 4ebe
000003f0: 0012 693e 783a 3d3e 5c11 d63c 358e 9e3e

embedding.conv1.conv.bias f4 [64]
-0.27928707 0.12458894 -0.11594133 0.0323628 -0.018647032 -0.1485892 0.0976419 0.25429928
-0.24268782 0.31031576 -0.35561892 -0.087763704 0.27782664 0.21054418 0.034558166 -0.15842588
0.1800769 -0.020067295 0.07989246 -0.11619566 0.18300845 -0.107464254 -0.27154535 0.019573562
0.08096321 0.12227727 0.2344216 -0.20925285 0.16988204 -0.095051736 0.087209016 -0.3307441
-0.046122834 0.06925826 0.14813367 0.20377861 -0.062587015 0.2427494 0.2618985 -0.07626181
0.12685852 -0.060086947 -0.316228 -0.13046086 -0.25308737 -0.06597602 -0.2314454 -0.14379865
0.22277796 -0.2564655 -0.06414657 0.2357039 -0.09940369 0.11632825 0.08063832 -0.14649245
-0.014890313 0.084156975 0.11631363 -0.23398888 -0.30467844 0.2677152 -0.18265037 0.083448395
00000000: b7fe 8ebe 7c28 ff3d a672 edbd db8e 043d
00000010: a9c1 98bc c427 18be 7af8 c73d 8433 823e
00000020: 2883 78be b5e1 9e3e af13 b6be 75bd b3bd
00000030: 4b3f 8e3e e598 573e dd8c 0d3d 653a 22be
00000040: 1466 383e 2b64 a4bc a89e a33d fdf7 edbd
00000050: 9166 3b3e 3816 dcbd fe07 8bbe bc58 a03c
00000060: 0ad0 a53d 816c fa3d 370c 703e 6146 56be
00000070: 8ff5 2d3e 7caa c2bd a49a b23d 4a57 a9be
00000080: 4ceb 3cbd 46d7 8d3d 5ab0 173e 57ab 503e
00000090: 9f2d 80bd 4c93 783e 8f17 863e 272f 9cbd
000000a0: 33e7 013e bb1d 76bd a3e8 a1be 8897 05be
000000b0: ab94 81be 701e 87bd 0600 6dbe f43f 13be
000000c0: e81f 643e 724f 83be 475f 83bd 5d5c 713e
000000d0: 2994 cbbd 813d ee3d b425 a53d 1e02 16be
000000e0: 80f6 73bc 7e5a ac3d d735 ee3d c89a 6fbe
000000f0: d0fe 9bbe f711 893e b308 3bbe fee6 aa3d

embedding.conv1.batch_norm_layer.weight f4 [64]
0.17199123 0.2252563 0.88281715 0.89926994 0.857632 0.22657931 0.91390556 0.12567861
0.37354678 0.46567455 0.6839393 0.69221157 0.37202644 0.82080024 0.27669019 0.25170794
0.5676714 0.23414616 0.7257181 0.41233644 0.8683915 0.8854363 0.2537202 0.668213
0.13357984 0.18278785 0.5724455 0.79647994 0.4555922 0.07465964 0.23881455 0.9980401
0.35034752 0.051889677 0.6172645 0.6933392 0.115372896 0.9242739 0.312623 0.4344615
0.1018975 0.60423696 0.9363194 0.8592115 0.39577875 0.65922016 0.5135457 0.340946
0.16804634 0.17637882 0.4186259 0.6208241 0.1245236 0.49790904 0.6740909 0.8418799
0.60714626 0.53168786 0.94105065 0.09537376 0.7966774 0.97529536 0.26211673 0.6246609
00000000: 781e 303e 96a9 663e 4e00 623f 8e36 663f
00000010: c58d 5b3f 6804 683e b7f5 693f e5b1 003e
00000020: 8641 bf3e e56c ee3e a516 2f3f c734 313f
00000030: 407a be3e f71f 523f 56aa 8d3e dddf 803e
00000040: ea52 113f 03c4 6f3e a9c8 393f c31d d33e
00000050: e84e 5e3f f4ab 623f 9de7 813e 0210 2b3f
00000060: 27c9 083e bd2c 3b3e ca8b 123f 1ce6 4b3f
00000070: 6143 e93e 27e7 983d cd8b 743e 8e7f 7f3f
00000080: c060 b33e 458a 543d 0c05 1e3f ae7e 313f
00000090: a048 ec3d 379d 6c3f 1f10 a03e bd71 de3e
000000a0: a3af d03d 46af 1a3f a1b2 6f3f 49f5 5b3f
000000b0: 83a3 ca3e a7c2 283f bb77 033f 7990 ae3e
000000c0: 5714 2c3e a69c 343e 2256 d63e 54ee 1e3f
000000d0: 3b06 ff3d efed fe3e 3991 2c3f 7185 573f
000000e0: f06d 1b3f b21c 083f b2e8 703f 5153 c33d
000000f0: 0df3 4b3f f5ac 793f 2a34 863e c7e9 1f3f

embedding.conv1.batch_norm_layer.bias f4 [64]
-0.029017944 -0.0106182275 -0.043032438 -0.044953387 0.012178285 -0.012990759 -0.01543858 0.0076872506
-0.0020808717 -0.0016851323 -0.010031148 -0.006861182 -0.039246183 -0.010414181 0.006801566 -0.0062753465
-0.01755181 -0.030334737 -0.08214789 -0.014664581 -0.045942817 -0.02117989 0.0047821854 -0.03460272
-0.026703179 0.02514844 -0.037596773 0.02427911 0.008770904 0.031818695 -0.02367596 0.009728975
0.00023820637 0.00053914834 -0.011413839 -0.045577426 0.023039168 -0.06388022 -0.0120652495 -0.006113825
0.0027051 -0.013031378 -0.060661323 0.0058717174 -0.007480491 -0.041473284 0.023943128 -0.009838094
0.010112041 0.023971688 -0.015295523 -0.0363484 -0.007915335 -0.06473877 0.03304048 0.05476673
0.049655728 0.0042512147 -0.029808512 -0.015665118 -0.016897028 -0.083216466 -0.026873477 -0.042063862
00000000: 0ab7 edbc 13f8 2dbc c842 30bd 0b21 38bd
00000010: 6e87 473c 31d7 54bc 19f2 7cbc 55e5 fb3b
00000020: 3c5f 08bb a8df dcba af59 24bc c4d3 e0bb
00000030: 9bc0 20bd 3ea0 2abc acdf de3b 6ca1 cdbb
00000040: d0c8 8fbc 8e80 f8bc 273d a8bd b643 70bc
00000050: 892e 3cbd 7381 adbc e1b3 9c3b 95bb 0dbd
00000060: a0c0 dabc 1a04 ce3c 13ff 19bd fce4 c63c
00000070: d6b3 0f3c 5254 023d 16f4 c1bc 4766 1f3c
00000080: 09c7 7939 a255 0d3a 1c01 3bbc 65af 3abd
00000090: a3bc bc3c a2d3 82bd 53ad 45bc 7b56 c8bb
000000a0: 0c48 313b 9081 55bc 0278 78bd 8967 c03b
000000b0: e81e f5bb e4df 29bd 6124 c43c f52f 21bc
000000c0: f9ac 253c 4660 c43c 139a 7abc 0fe2 14bd
000000d0: 52af 01bc c395 84bd 7455 073d 1453 603d
000000e0: ce63 4b3d c64d 8b3b fb30 f4bc 2254 80bc
000000f0: a36b 8abc 656d aabd c425 dcbc 284b 2cbd

embedding.conv1.batch_norm_layer.running_mean f4 [64]
0.019679902 0.036608394 0.016828155 0.00722377 0.000254936 0.001009489 0.9491827 0.01779994
0.00029088312 0.88030547 0.09966983 0.5535459 0.31572136 0.6066934 0.756256 0.07257603
0.30755594 0.01066534 0.16237968 0.02454937 0.43933806 0.010115664 0.0007768078 0.39147168
0.041302633 0.0035272916 0.0044898293 0.0004038753 0.44131273 0.62750244 0.023202883 0.0
0.004049549 0.007054622 0.44718912 0.14364335 0.9087029 0.45417565 0.0055905273 0.5983119
1.209912 0.078310005 0.10552006 7.051939e-06 0.0025561093 0.03147481 0.5671478 0.1825814
0.49653766 0.3179543 0.016901476 0.0022780453 0.016414933 0.13462636 0.0002282144 0.0
0.0 0.4526137 0.516213 0.00073457026 0.25829193 0.33806503 0.007207584 0.040694963
00000000: bf37 a13c aff2 153d 33db 893c 60b5 ec3b
00000010: eea8 8539 d450 843a a3fd 723f 2ed1 913c
00000020: ac81 9839 b35b 613f b21f cc3d 2fb5 0d3f
00000030: 3ba6 a13e 4250 1b3f fe99 413f bea2 943d
00000040: f977 9d3e aebd 2e3c dc46 263e c31b c93c
00000050: ebf0 e03e 2cbc 253c b0a2 4b3a fa6e c83e
00000060: f32c 293d 222a 673b 6b1f 933b 3abf d339
00000070: bef3 e13e 00a4 203f f913 be3c 0000 0000
00000080: 14b2 843b 752a e73b f9f5 e43e 3e17 133e
00000090: c1a0 683f b689 e83e be30 b73b f82a 193f
000000a0: 65de 9a3f ff60 a03d e71a d83d b29f ec36
000000b0: 6684 273b bbeb 003d 9930 113f 9ef6 3a3e
000000c0: 2f3a fe3e e8ca a23e f774 8a3c 424b 153b
000000d0: 9c78 863c 7edb 093e d64c 6f39 0000 0000
000000e0: 0000 0000 fcbc e73e 8926 043f 2d90 403a
000000f0: d73e 843e dc16 ad3e 992d ec3b c3af 263d

embedding.conv1.batch_norm_layer.running_var f4 [64]
0.00628528 0.009962241 0.0044852556 0.0017671894 1.9941539e-05 0.00010636275 0.058060892 0.0038459094
2.5531299e-05 0.02576191 0.0043346444 0.027172972 0.008916609 0.029006558 0.06023826 0.0065838955
0.02130509 0.0012307755 0.006745055 0.007961786 0.02896982 0.0016498243 0.00010965105 0.024234915
0.0104657095 0.00068867 0.001213998 5.0221835e-05 0.05374102 0.03645816 0.005472018 6e-45
0.00077865727 0.0016914314 0.013577954 0.023460442 0.0748248 0.02325787 0.0010794582 0.030067086
0.069943205 0.003252891 0.00419339 4.5852073e-07 0.0004993126 0.012649817 0.064523615 0.010070011
0.0331421 0.015891703 0.004023952 0.00048125756 0.0026967847 0.009972349 3.09909e-05 6e-45
6e-45 0.024133848 0.037992973 9.880485e-05 0.013155259 0.017503118 0.0009978757 0.011799217
00000000: c0f4 cd3b ab38 233c 0df9 923b 09a1 e73a
00000010: 2148 a737 110f df38 42d1 6d3d a70b 7c3b
00000020: 0c2c d637 a40a d33c a209 8e3b da99 de3c
00000030: f816 123c 299f ed3c 65bc 763d b8bd d73b
00000040: 0388 ae3c f951 a13a 9f05 dd3b 2772 023c
00000050: 1e52 ed3c eb3e d83a 76f4 e538 4d88 c63c
00000060: 5e78 2b3c dd87 343a 031f 9f3a 49a5 5238
00000070: 8b1f 5c3d 2755 153d 9d4e b33b 0400 0000
00000080: ce1e 4c3a 05b3 dd3a 1176 5e3c 1d30 c03c
00000090: bf3d 993d 4a87 be3c 9b7c 8d3a 404f f63c
000000a0: 623e 8f3d 742e 553b b468 893b 9c2a f634
000000b0: 4de4 023a 2e41 4f3c f524 843d b0fc 243c
000000c0: 03c0 073d 512f 823c 5bdb 833b 4c51 fc39
000000d0: 8abc 303b 1063 233c 3afc 0138 0400 0000
000000e0: 0400 0000 59b4 c53c 859e 1b3d 7335 cf38
000000f0: 2889 573c b362 8f3c 27cb 823a 8151 413c

embedding.conv2.conv.weight f4 [64, 64, 3, 3]
0.019157872 0.032962743 -0.04044622 -0.045911614 -0.010956205 0.027555048 -0.039543163 0.0027744344
-0.03125852 0.020070303 -0.0063086185 -0.027898215 0.022873672 0.020846361 -0.04400209 0.0039263214
0.049760383 0.0143545605 0.03179645 -0.002591309 0.007109482 -0.009996927 -0.019781176 -0.028798345
-0.0057562985 -0.038768686 0.003818634 -0.04991017 -0.01173163 -0.0066548544 0.0093942005 -0.009724968
0.017909128 0.03204992 -0.013847322 0.0026578035 -0.03948336 0.012014838 -0.0060160104 0.008918646
0.017231135 -0.014091423 -0.027020004 -0.02132041 0.0018380556 0.02084776 0.058363095 -0.0060539
-0.026410708 0.011087438 -0.022240229 0.024921045 -0.042409122 -0.027970225 -0.01696838 -0.009978159
-0.073003024 -0.036104273 -0.011249545 -0.0075188605 0.023307001 0.058776736 0.01843215 -0.024611352
0.054692112 0.024900272 -0.029127467 7.4374315e-05 -0.02357434 0.05478201 0.060282223 0.034890227
0.019452415 -0.03967894 -0.06141553 0.010335323 -0.01918933 0.020142654 -0.013919944 0.027628312
-0.016054299 -0.0066150585 -0.000295248 -0.0013692838 0.010642855 0.006830445 -0.036613006 -0.034851555
0.00694313 0.06565582 -0.035746075 0.0120022725 -0.012618932 0.0055452846 0.012936355 -0.0117837
-0.041247286 0.015408852 -0.014756358 0.0012232373 0.03831721 -0.039401498 0.021640532 0.048423693
0.035590593 -0.036629234 -0.016001323 0.039106015 -0.021550417 0.033402927 0.015005976 -0.008418673
-0.009839399 -0.006902492 0.0467483 0.0007918174 -0.0056074187 0.005095572 -0.02149508 -0.015901048
-0.026547821 -0.014555242 0.02951249 -0.03014938 -0.011018174 0.019484755 -0.03861322 0.034866925
-0.0443588 -0.01941939 -0.003098202 -0.006356153 -0.010827275 -0.03207187 0.03197426 0.042037502
-0.023629112 0.0017362442 -0.021628961 -0.012423772 0.012695915 -0.032108918 -0.0003302109 -0.029754039
-0.015887277 0.034547336 -0.008213131 -0.027723046 -0.0076886136 -0.05825778 0.025646845 0.024492556
-0.007049504 0.037680138 0.011557927 0.049527235 0.048695497 0.0075772004 0.025111375 -0.007892772
0.005119586 0.03538804 -0.0033087065 -0.029253101 -0.012590889 0.03728085 0.007604164 -0.005938384
0.013837477 0.03107963 0.0024749443 -0.023340046 0.015383224 0.05111764 0.02958978 0.023526395
-0.0074568433 0.034199644 0.014875096 0.00231938 -0.01838949 0.004374098 0.0054727807 0.019259319
0.014855143 -0.008793141 0.021649666 0.012539837 -0.004840803 -0.029139506 -0.02222721 -0.011821699
-0.03789471 -0.0027534456 0.005968697 -0.0228347 0.0035650658 -0.045201316 0.022288034 0.011780369
0.025954574 0.061413802 0.025401488 0.028595023 0.032087777 -0.0015575096 -0.043432612 0.010267499
0.06547455 0.032392338 0.008276366 -0.0222734 -0.014989836 0.011816355 -0.04637171 -0.0019933386
0.014128279 0.03161875 -0.011479895 -0.04802431 0.04610868 0.036879938 0.0124996 0.0005696667
-0.05407782 0.020508103 0.019333431 0.0022632543 0.01682411 0.055527896 0.0141834095 0.031052785
0.017644899 -0.034256164 -0.038989123 0.027849492 0.058214538 0.012326765 -0.043443907 0.017094657
0.0038761008 0.037009303 -0.03964505 0.042359922 -0.03700646 -0.0072426763 0.00097464275 -0.048646968
-0.0036994405 0.0062988494 -0.046487715 -0.044112813 0.020717999 0.012013543 0.019396128 0.010501894
00000000: f8f0 9c3c f103 073d f0aa 25bd d10d 3cbd
00000010: a881 33bc 20bb e13c 03f8 21bd 49d3 353b
00000020: ef08 00bd 7a6a a43c 87b8 cebb cc8a e4bc
00000030: 9161 bb3c fdc5 aa3c 893b 34bd 5fa8 803b
00000040: 8bd1 4b3d 642f 6b3c ff3c 023d f3d2 29bb
00000050: a8f6 e83b 27ca 23bc 220c a2bc 82ea ebbc
00000060: 559f bcbb eacb 1ebd 0c42 7a3b 9b6e 4cbd
00000070: 0636 40bc f710 dabb 22ea 193c 7955 1fbc
00000080: 2ab6 923c c746 033d e1df 62bc 8b2e 2e3b
00000090: 4eb9 21bd e2d9 443c f421 c5bb 831f 123c
000000a0: 4f28 8d3c b6df 66bc 0e59 ddbc 24a8 aebc
000000b0: e9ea f03a ecc8 aa3c 240e 6f3d cb5f c6bb
000000c0: 455b d8bc 16a8 353c 2431 b6bc 3827 cc3c
000000d0: 30b5 2dbd d021 e5bc 4601 8bbc 6f7b 23bc
000000e0: 9c82 95bd 13e2 13bd 0350 38bc c660 f6bb
000000f0: 53ee be3c e0bf 703d 05ff 963c bf9d c9bc
00000100: d604 603d a8fb cb3c ba9c eebc 68f9 9b38
00000110: f91e c1bc 1a63 603d 7eea 763d 0ee9 0e3d
00000120: ac5a 9f3c 6286 22bd da8e 7bbd 7d55 293c
00000130: f132 9dbc 3502 a53c 7a10 64bc c554 e23c
00000140: 4e84 83bc 22c3 d8bb 84cb 9ab9 8a79 b3ba
00000150: 5f5f 2e3c edd1 df3b 85f7 15bd 81c0 0ebd
00000160: 3283 e33b 8f76 863d 7a6a 12bd 2ea5 443c
00000170: a3bf 4ebc 38b5 b53b 01f3 533c 6c10 41bc
00000180: eaf2 28bd 6975 7c3c a7c4 71bc 0855 a03a
00000190: 82f2 1c3d 7763 21bd 7c47 b13c ec57 463d
000001a0: 71c7 113d 8908 16bd 3515 83bc a12d 203d
000001b0: 808a b0bc 82d1 083d a0db 753c 79ee 09bc
000001c0: 6e35 21bc 4d2e e2bb 257b 3f3d f791 4f3a
000001d0: 70be b7bb c2f8 a63b 7316 b0bc ea42 82bc
000001e0: d17a d9bc 1c79 6ebc 2dc4 f13c d5fb f6bc
000001f0: 9285 34bc 7e9e 9f3c e528 1ebd 9fd0 0e3d
00000200: 93b1 35bd 6a15 9fbc 340b 4bbb 4747 d0bb
00000210: e264 31bc cb5d 03bd 71f7 023d 842f 2c3d
00000220: d791 c1bc b092 e33a 382f b1bc 148d 4bbc
00000230: 8702 503c a484 03bd 2820 adb9 bebe f3bc
00000240: 0926 82bc 8281 0d3d 5e90 06bc 711b e3bc
00000250: c4f0 fbbb b69f 6ebd 5519 d23c 9da4 c83c
00000260: 87ff e6bb 7d56 1a3d 765d 3d3c 12dd 4a3d
00000270: ee74 473d 2a4a f83b 5fb6 cd3c af50 01bc
00000280: 33c2 a73b 0df3 103d e2d6 58bb 33a4 efbc
00000290: 044a 4ebc ceb3 183d 5a2c f93b c796 c2bb
000002a0: 96b6 623c b59a fe3c ad32 223b a033 bfbc
000002b0: eb09 7c3c bb60 513d 4466 f23c 6dba c03c
000002c0: 8958 f4bb ed14 0c3d adb6 733c bd00 183b
000002d0: 8ea5 96bc 9854 8f3b 0355 b33b b8c5 9d3c
000002e0: fc62 733c 1b11 10bc a45a b13c e373 4d3c
000002f0: 999f 9ebb f9b5 eebc d715 b6bc cdaf 41bc
00000300: 7c37 1bbd 2773 34bb 0f95 c33b d60f bbbc
00000310: e1a3 693b 0425 39bd 6595 b63c 7302 413c
00000320: b09e d43c 0a8d 7b3d c816 d03c 1c40 ea3c
00000330: 796e 033d 5a25 ccba 65e6 31bd 0339 283c
00000340: 8517 863d d4ad 043d 9899 073c b576 b6bc
00000350: ee97 75bc 6399 413c 43f0 3dbd aca2 02bb
00000360: 4c7a 673c aa82 013d 2b16 3cbc 24b5 44bd
00000370: 75dc 3c3d 6b0f 173d 1fcb 4c3c af55 153a
00000380: b480 5dbd 9c00 a83c 2561 9e3c 1b53 143b
00000390: b7d2 893c 3871 633d 8861 683c 6962 fe3c
000003a0: 098c 903c 3150 0cbd 0fb3 1fbd 9e24 e43c
000003b0: 5e72 6e3d 33f6 493c 3df2 31bd 180a 8c3c
000003c0: 2e06 7e3b 1197 173d d962 22bd 9981 2d3d
000003d0: 1694 17bd f953 edbb 2b7f 7f3a 0b42 47bd
000003e0: 5072 72bb 9466 ce3b e769 3ebd a3af 34bd
000003f0: cbb8 a93c 74d4 443c a1e4 9e3c 2310 2c3c

embedding.conv2.conv.bias f4 [64]
0.033313464 -0.029625358 -0.088108756 -0.0364574 -0.0651315 0.032416094 -0.045329582 -0.031371832
-0.02047688 -0.06043102 0.012042149 0.037707306 0.019481603 -0.039287534 -0.03902287 0.0039146054
-0.0066673546 0.056322042 -0.04191954 0.013021398 -0.051228512 0.012160428 -0.072116025 0.012130979
-0.048763685 0.01857201 -0.038434602 0.033496767 0.017317535 0.015632177 -0.0007936763 0.011970025
-0.062450033 -0.008763712 -0.059437238 -0.0097167175 0.0010532176 0.013740548 0.011623183 -0.0055361814
0.014967348 -0.019806804 -0.032527354 0.014529101 0.02801166 -0.033905525 -0.053985436 0.008050268
-0.051982958 0.0069949273 -0.023047548 0.041390695 -0.03412201 -0.05007798 -0.027542036 -0.06396365
-0.05557837 -0.041260585 -0.012761274 -0.03499823 -0.005729809 -0.009618315 -0.040646955 -0.02812018
00000000: b373 083d e1b0 f2bc 5d72 b4bd 5b54 15bd
00000010: aa63 85bd bdc6 043d 83ab 39bd c07f 00bd
00000020: 21bf a7bc 8486 77bd 6f4c 453c fa72 1a3d
00000030: e297 9f3c f7eb 20bd 72d6 1fbd 1746 803b
00000040: d379 dabb f1b1 663d d3b3 2bbd b457 553c
00000050: fdd4 51bd 883c 473c 91b1 93bd 04c1 463c
00000060: 6ebc 47bd 5424 983c 9a6d 1dbd e833 093d
00000070: 81dd 8d3c 0d0f 803c b70e 50ba ec1d 443c
00000080: 9bcb 7fbd ac95 0fbc 7674 73bd de32 1fbc
00000090: 1e0c 8a3a 0920 613c 2a6f 3e3c db68 b5bb
000000a0: 9c39 753c e141 a2bc 673b 05bd 770b 6e3c
000000b0: b578 e53c 85e0 0abd d51f 5dbd 45e5 033c
000000c0: 15ec 54bd b435 e53b 36ce bcbc 4a89 293d
000000d0: 85c3 0bbd 911e 4dbd d69f e1bc 60ff 82bd
000000e0: 25a6 63bd dc00 29bd aa14 51bc 4e5a 0fbd
000000f0: 1fc1 bbbb 2396 1dbc 6c7d 26bd 4b5c e6bc

embedding.conv2.batch_norm_layer.weight f4 [64]
0.56534904 0.50480825 0.14107487 0.46204382 0.1552608 0.5133046 0.4488551 0.5693901
0.7881328 0.5913596 0.53402483 0.73575413 0.8314427 0.5245997 0.13842846 0.4639249
0.6288642 0.46954274 0.22677341 0.59106666 0.3919321 0.5473573 0.45734122 0.34690082
0.6538114 0.30500326 0.81162703 0.8960246 0.24080548 0.30266264 0.90582263 0.82711756
0.22255847 0.39113578 0.3125466 0.755368 0.75825363 0.5119278 0.581183 0.2063583
0.75759804 0.46740136 0.87510127 0.64096797 0.584519 0.48261476 0.17399834 0.41883916
0.7822816 0.15499614 0.70710915 0.897231 0.24741834 0.19333471 0.44521645 0.46010244
0.19128907 0.23643973 0.58096486 0.7285215 0.23964588 0.6569604 0.33192995 0.69755507
00000000: b7ba 103f 1d3b 013f ee75 103e 0291 ec3e
00000010: b0fc 1e3e ee67 033f 56d0 e53e 8dc3 113f
00000020: 12c3 493f 5863 173f dab5 083f 625a 3c3f
00000030: 6ed9 543f 2a4c 063f 31c0 0d3e 9187 ed3e
00000040: 3ffd 203f e867 f03e 4a37 683e 2550 173f
00000050: 53ab c83e 9c1f 0c3f a128 ea3e fc9c b13e
00000060: 2f60 273f 6329 9c3e cac6 4f3f de61 653f
00000070: b695 763e 99f6 9a3e fee3 673f fabd 533f
00000080: 5ee6 633e f342 c83e 1c06 a03e cc5f 413f
00000090: e91c 423f b30d 033f 69c8 143f 974f 533e
000000a0: f2f1 413f 3b4f ef3e a306 603f 7a16 243f
000000b0: 0aa3 153f 4819 f73e 9f2c 323e 1672 d63e
000000c0: 9b43 483f 4fb7 1e3e 1b05 353f eeb0 653f
000000d0: 3c5b 7d3e 89f9 453e 69f3 e33e 8c92 eb3e
000000e0: 48e1 433e 421d 723e 1dba 143f 6380 3a3f
000000f0: bb65 753e 8f2e 283f b9f2 a93e f892 323f

embedding.conv2.batch_norm_layer.bias f4 [64]
-0.050521486 -0.04104403 0.016990734 -0.04279325 0.00086588267 -0.011550189 -0.043123886 -0.05679598
-0.049252655 -0.047842275 -0.010531743 -0.0385565 -0.0912056 -0.057149854 -0.015274521 -0.03896383
0.00011298669 -0.031833604 -0.019688029 -0.053455733 -0.01777246 -0.008286172 -0.03337164 -0.045712363
-0.059790324 -0.0012944568 -0.07637065 -0.035340354 -0.03600607 0.01005268 -0.08042563 -0.058612254
0.01576593 0.0010663101 0.018233815 -0.038119443 -0.029451616 -0.021779262 -0.04400233 0.016220411
-0.048066713 -0.039541233 -0.052313123 -0.04335519 -0.01751776 -0.012316561 -0.020475347 -0.021403115
-0.036558576 0.0005130255 -0.065587655 -0.07288147 0.008543853 0.026483763 -0.043013647 -0.056750316
-0.022883687 -0.015705658 -0.019249752 -0.044492424 -0.030751947 -0.043399725 -0.017373506 -0.06705465
00000000: 9eef 4ebd c91d 28bd 2730 8b3c fa47 2fbd
00000010: 67fc 623a 013d 3dbc aca2 30bd e7a2 68bd
00000020: 27bd 49bd 43f6 43bd 558d 2cbc 6ced 1dbd
00000030: 00ca babd f715 6abd fc41 7abc 8998 1fbd
00000040: 44f3 ec38 f463 02bd ca48 a1bc 66f4 5abd
00000050: 8d97 91bc b9c2 07bc b3b0 08bd e33c 3bbd
00000060: b3e6 74bd c3aa a9ba 3768 9cbd 0cc1 10bd
00000070: 1a7b 13bd ffb3 243c 31b6 a4bd 6713 70bd
00000080: 8d27 813c 6ec3 8b3a 155f 953c 2223 1cbd
00000090: 8444 f1bc 6c6a b2bc ca3b 34bd abe0 843c
000000a0: 9ae1 44bd fdf5 21bd 4946 56bd 3695 31bd
000000b0: 6881 8fbc 67cb 49bc eabb a7bc 9655 afbc
000000c0: 72be 15bd 8f7c 063a d252 86bd e142 95bd
000000d0: 84fb 0b3c 7af4 d83c 142f 30bd 0573 68bd
000000e0: 9276 bbbc 27a9 80bc a8b1 9dbc b03d 36bd
000000f0: 82eb fbbc e9c3 31bd e252 8ebc f353 89bd

embedding.conv2.batch_norm_layer.running_mean f4 [64]
0.24559158 0.089884184 0.01273945 0.0723822 0.017310217 0.34248856 0.043813717 0.137401
0.33403483 0.17057988 0.26622573 0.5466167 0.4392318 0.5709486 0.03319108 0.09076263
0.026289044 0.13216195 0.060753647 0.15966043 0.1206544 0.32204652 0.03850529 0.052280262
0.1729854 0.068304 0.11785479 0.50368696 0.027089251 0.09061369 0.38555974 0.21839145
0.04944721 0.15166733 0.040598854 0.15932386 0.06946854 0.101987615 0.2695747 0.114495434
0.25628152 0.11645133 0.34091535 0.22597602 0.21663386 0.10305967 0.011426342 0.1776054
0.09198264 0.027064515 0.09860937 0.44422683 0.08613989 0.027812049 0.036875825 0.09185127
0.02345249 0.040916286 0.22349185 0.16086327 0.018172305 0.3123254 0.19909832 0.20984286
00000000: 5c7c 7b3e 3315 b83d 20b9 503c 1e3d 943d
00000010: 28ce 8d3c a95a af3e 0376 333d d9b2 0c3e
00000020: 9d06 ab3e 7eac 2e3e bd4e 883e 12ef 0b3f
00000030: fee2 e03e b029 123f 5ff3 073d c2e1 b93d
00000040: 1f5c d73c 7655 073e d1d8 783d 067e 233e
00000050: a719 f73d 48e3 a43e b9b7 1d3d d423 563d
00000060: 1623 313e f8e2 8b3d da5d f13d a1f1 003f
00000070: 47ea dd3c ac93 b93d 1668 c53e 02a2 5f3e
00000080: 2889 4a3d ae4e 1b3e fc4a 263d cb25 233e
00000090: 8645 8e3d e2de d03d b205 8a3e 957c ea3d
000000a0: 5537 833e 097e ee3d 758c ae3e 4266 673e
000000b0: 44d5 5d3e f310 d33d 8d35 3b3c 31de 353e
000000c0: 6561 bc3d 67b6 dd3c b6f3 c93d b371 e33e
000000d0: 1c6a b03d 18d6 e33c 1b0b 173d 851c bc3d
000000e0: 701f c03c d697 273d 0cdb 643e 57b9 243e
000000f0: 16de 943c 1de9 9f3e 6ee0 4b3e 0ce1 563e

embedding.conv2.batch_norm_layer.running_var f4 [64]
0.175722 0.06838036 0.009172957 0.097636946 0.013085956 0.181482 0.04377341 0.16339989
0.37321442 0.17073028 0.1417818 0.18994612 0.18462235 0.24759868 0.023033094 0.064801864
0.020243471 0.10255454 0.049094714 0.1314508 0.11235345 0.09486065 0.034725886 0.021007642
0.23217683 0.05596304 0.11396043 0.22262593 0.01799835 0.03493946 0.3478071 0.104889326
0.028178053 0.060526438 0.02742398 0.11805955 0.04690206 0.13066317 0.14631638 0.07606804
0.10408429 0.08988004 0.30366436 0.24275635 0.16450234 0.05156195 0.009350964 0.082647495
0.10036461 0.020434642 0.083864704 0.3027879 0.07444378 0.018576076 0.031511232 0.106909394
0.022768425 0.04814489 0.12225965 0.26527923 0.014915554 0.14555568 0.10476948 0.104272164
00000000: 78f0 333e 010b 8c3d 2c4a 163c e1f5 c73d
00000010: 7a66 563c 6bd6 393e bf4b 333d 4d52 273e
00000020: f615 bf3e ebd3 2e3e 402f 113e 3c81 423e
00000030: a40d 3d3e 828a 7d3e e6af bc3c d7b6 843d
00000040: a3d5 a53c 1d08 d23d 8a17 493d 0a9b 063e
00000050: 9119 e63d 4d46 c23d bb3c 0e3d 3818 ac3c
00000060: c3bf 6d3e 8039 653d 1664 e93d 0df8 633e
00000070: 4771 933c ae1c 0f3d c613 b23e 37d0 d63d
00000080: a9d5 e63c 92ea 773d 41a8 e03c 35c9 f13d
00000090: 601c 403d 91cc 053e f6d3 153e 90c9 9b3d
000000a0: 252a d53d 0713 b83d e579 9b3e 1f95 783e
000000b0: 4d73 283e a032 533d c934 193c 1743 a93d
000000c0: f68b cd3d 8d66 a73c 42c1 ab3d 0407 9b3e
000000d0: fb75 983d db2c 983c ec11 013d 50f3 da3d
000000e0: d984 ba3c 9433 453d 4463 fa3d aed2 873e
000000f0: 5e60 743c 8c0c 153e 6291 d63d a58c d53d

embedding.conv3.conv.weight f4 [64, 64, 3, 3]
-0.018292474 -0.039308097 -0.014326769 0.013579412 0.027440447 0.0010551255 -0.019582413 0.049147077
0.020995438 0.011120171 0.0073742713 0.0310635 -0.0014906002 -0.041872643 0.05123484 7.0984635e-05
-0.040054996 -0.01226489 -0.014850289 0.047104254 -0.047748357 -0.05387811 -0.034501005 0.028764687
0.003064274 -0.017246475 -0.046914518 -0.05632275 0.064226404 -0.0011564959 0.014719798 -0.0138445
-0.016283248 0.016345488 -0.010895453 0.0086959805 -0.028016364 0.017044472 0.011025855 0.020651577
0.0024128084 0.013331851 -0.031480603 -0.008079291 -0.0072462033 0.018590195 -0.043500572 0.047672268
-0.015318027 -0.008658493 -0.025569873 0.046825644 -0.03832778 -0.030449055 0.0053151385 0.041644804
-0.018139085 0.024068698 0.044100575 0.04285139 0.040010843 -0.045937832 0.018015156 -0.010867942
0.013967238 0.007698595 0.048191372 -0.0074824197 0.029086811 -0.00599678 0.0015215002 -0.03229836
0.0063063335 -0.013317674 0.040365987 -0.030847143 -0.0032035229 -0.017939687 -0.005574968 0.026706392
0.016100883 0.00077875715 0.023916012 0.084963106 0.011284664 0.003430361 -0.038999155 0.040193904
-0.013296114 0.046222035 -0.03003044 -0.061424695 0.026762431 0.056943323 0.012554592 -0.05496842
-0.044483017 -0.024064219 0.02964599 -0.004422318 -0.042104956 -0.061807536 -0.037967987 -0.019495975
-0.026016036 0.064228766 0.037125863 -0.04514836 -0.040764365 -0.019825721 -0.01573296 -0.017880514
0.011048673 -0.01334915 0.04083169 -0.015203908 0.005707419 0.0068004825 -0.029186906 -0.027638406
-0.041480917 0.019786306 0.016796581 0.015449439 -0.009338596 0.014065086 -0.062173676 0.007234702
0.0055747465 -0.00619579 -0.008500791 -4.6554902e-05 -0.019744093 -0.0038852594 0.02456488 -0.012014842
-0.051283315 0.010354082 -0.023739904 0.024987742 0.056548994 0.0211922 0.010695778 0.034102645
-0.030900577 -0.033916753 -0.012660621 0.019710585 0.0063440036 0.0049066166 -0.014326313 -0.02544538
-0.041975927 0.020914737 0.0280992 0.045051284 -0.008072657 0.025812294 -0.0013612761 0.0037020496
0.013251521 -0.023750907 -0.015459272 0.0031176663 0.021511665 -0.033818237 0.031906165 0.043728653
0.019959725 0.0360032 0.027315855 0.009022939 0.00041751645 0.016275952 -0.040614232 -0.05011356
0.01571078 0.044185903 -0.017668443 0.028693814 -0.015936626 -0.043389894 -0.0015172162 -0.010266704
0.01187739 -0.016283814 -0.01129782 -0.018425768 0.0052974145 0.0065304413 0.050874878 -0.046377875
0.0026950557 -0.018002087 -0.025060272 -0.008803455 -0.0032335254 -0.08963178 -0.04279566 -0.011891556
-0.005578214 -0.028587619 -0.04310314 0.012155189 0.046409834 -0.016144896 0.05072857 -0.02296167
0.0078053023 -0.0012466806 -0.010248023 -0.037177842 -0.034176335 -0.0367388 -0.031054532 0.017811945
0.0054053254 0.019743152 -0.016190035 -0.0057619545 -0.025516585 0.0032825153 -0.0327526 -0.014174922
0.022600632 -0.010939166 -0.025543736 0.032451134 0.008566605 -0.08278308 0.039563723 -0.008214503
0.026852291 -0.03277617 -0.025441784 -0.017430475 0.024694396 -0.04171889 -0.017608266 0.0005503848
0.0700248 -0.027261863 -0.012493968 -0.002201075 -0.024454065 0.009667791 -0.0053251823 0.0013382762
-0.03128156 0.027100667 -0.014990547 -0.02199664 -0.005390964 -0.019484824 0.022615358 -0.056940135
00000000: 19da 95bc 8701 21bd d3ba 6abc 2f7c 5e3c
00000010: caca e03c 234c 8a3a 4c6b a0bc 724e 493d
00000020: a0fe ab3c 6131 363c dfa3 f13b e278 fe3c
00000030: 3e60 c3ba a682 2bbd a0db 513d 96dd 9438
00000040: b510 24bd adf2 48bc a04e 73bc 64f0 403d
00000050: c893 43bd 4baf 5cbd ed50 0dbd eca3 eb3c
00000060: fdd1 483b 7b48 8dbc 7029 40bd afb2 66bd
00000070: 2289 833d 9095 97ba 4f2b 713c 0bd4 62bc
00000080: 7264 85bc f9e6 853c d882 32bc 9679 0e3c
00000090: 9382 e5bc d9a0 8b3c caa5 343c 7f2d a93c
000000a0: 3520 1e3b d66d 5a3c cef1 00bd 015f 04bc
000000b0: 8f71 edbb 774a 983c a82d 32bd ff43 433d
000000c0: 76f8 7abc 5adc 0dbc e977 d1bc 3fcc 3f3d
000000d0: 97fd 1cbd 4c70 f9bc 9d2a ae3b be93 2a3d
000000e0: 6b98 94bc b82b c53c cea2 343d f084 2f3d
000000f0: 69e2 233d 4f29 3cbd 8594 933c 740f 32bc
00000100: d8d6 643c 7f44 fc3b 5164 453d 162f f5bb
00000110: 7747 ee3c a380 c4bb 136d c73a 494b 04bd
00000120: 5ca5 ce3b 6032 5abc ce56 253d 26b3 fcbc
00000130: 32f2 51bb 40f6 92bc 39ae b6bb 5dc7 da3c
00000140: 00e6 833c 8225 4c3a 83eb c33c 2301 ae3d
00000150: 50e3 383c e8cf 603b 94bd 1fbd 5da2 243d
00000160: f2d7 59bc 5153 3d3d 6602 f6bc 7698 7bbd
00000170: e33c db3c 673d 693d c7b1 4d3c 9126 61bd
00000180: d333 36bd 5322 c5bc 26dc f23c 18e9 90bb
00000190: 3f76 2cbd e629 7dbd 5284 1bbd 06b6 9fbc
000001a0: 951f d5bc 5f8a 833d 4a11 183d 7ded 38bd
000001b0: 89f8 26bd 8d69 a2bc 69e2 80bc 287a 92bc
000001c0: 7e05 353c 65b6 5abc 213f 273d d019 79bc
000001d0: 4d05 bb3b 95d6 de3b 6119 efbc f069 e2bc
000001e0: e5e7 29bd e416 a23c fc98 893c a51f 7d3c
000001f0: e900 19bc 3f71 663c d3a9 7ebd 1411 ed3b
00000200: 5dac b63b 0e06 cbbb e746 0bbc f243 43b8
00000210: 5dbe a1bc d69f 7ebb 4a3c c93c e6d9 44bc
00000220: 740e 52bd 2ba4 293c 307a c2bc 18b3 cc3c
00000230: eb9f 673d 449b ad3c 583d 2f3c 37af 0b3d
00000240: 3523 fdbc 4bec 0abd 7e6e 4fbc 1878 a13c
00000250: 5ce1 cf3b afc7 a03b e9b8 6abc d472 d0bc
00000260: f3ee 2bbd 6255 ab3c 4b30 e63c b287 383d
00000270: 2d43 04bc 4e74 d33c d96c b2ba 169e 723b
00000280: e81c 593c 4391 c2bc e348 7dbc c351 4c3b
00000290: 3b39 b03c fe84 0abd 0ab0 023d d11c 333d
000002a0: 9482 a33c 1778 133d 80c5 df3c f3d4 133c
000002b0: 1ce6 da39 2555 853c 1c5b 26bd e043 4dbd
000002c0: e5b3 803c 47fc 343d 69bd 90bc 4a0f eb3c
000002d0: 878d 82bc 9ab9 31bd 54dd c6ba ad35 28bc
000002e0: 6299 423c a265 85bc 7e1a 39bc a3f1 96bc
000002f0: ef95 ad3b 50fd d53b 2d62 503d baf6 3dbd
00000300: 889f 303b 1d79 93bc 334b cdbc 5e3c 10bc
00000310: 8ee9 53bb de90 b7bd 814a 2fbd cdd4 42bc
00000320: 73c9 b6bb 9530 eabc eb8c 30bd 8f26 473c
00000330: 3d18 3e3d 4d42 84bc c3c8 4f3d 1d1a bcbc
00000340: 9fc3 ff3b a967 a3ba 53e7 27bc cb47 18bd
00000350: 7cfc 0bbd 6d7b 16bd 1366 febc 5bea 913c
00000360: 281f b13b 64bc a13c f7a0 84bc c7ce bcbb
00000370: 2808 d1bc 781f 573b 9727 06bd ef3d 68bc
00000380: f624 b93c 303a 33bc 1941 d1bc 7beb 043d
00000390: f25a 0c3c 2d8a a9bd 920d 223d 1f96 06bc
000003a0: 56f9 db3c 4e40 06bd 4a6b d0bc 5bca 8ebc
000003b0: e74b ca3c 6de1 2abd 363f 90bc b347 103a
000003c0: 2a69 8f3d 4554 dfbc 80b3 4cbc e93f 10bb
000003d0: e453 c8bc a865 1e3c de7e aebb 1969 af3a
000003e0: 1821 00bd 3802 de3c e99a 75bc 4c32 b4bc
000003f0: afa6 b0bb a39e 9fbc d843 b93c 0f3a 69bd

embedding.conv3.conv.bias f4 [64]
-0.046528462 -0.053650692 -0.03949074 0.03668117 -0.03076702 -0.008747693 0.014064069 -0.015163795
-0.014500364 0.024746368 -0.06257445 -0.06992759 -0.041168094 -0.050171535 -0.012056279 -0.02087527
-0.039620567 -0.062558815 -0.05276792 -0.022940654 -0.058918163 -0.06770637 0.012009629 -0.018529586
-0.05807703 0.029100856 -0.037666585 -0.013184392 -0.02952562 0.0061963545 -0.02156898 -0.013938632
-0.07692125 -0.043703157 -0.0020172873 0.0031591838 -0.013781984 0.04850004 -0.046044927 -0.057529822
-0.012798429 -0.0010533966 0.027326616 -0.085802704 -0.07307877 -0.073748104 0.018944113 -0.034776364
-0.063036434 -0.014294865 0.0061615673 -0.03408207 -0.046103384 -0.009892721 -0.01723271 -0.06621838
0.06360289 0.024855543 0.029201915 -0.006216233 -0.040718716 -0.08612286 -0.047684103 0.042255055
00000000: a194 3ebd d4c0 5bbd 0bc1 21bd ff3e 163d
00000010: 1e0b fcbc 7c52 0fbc fb6c 663c 9171 78bc
00000020: ef92 6dbc e5b8 ca3c 0927 80bd 3236 8fbd
00000030: e09f 28bd ab80 4dbd b387 45bc 9d02 abbc
00000040: 2d49 22bd d61e 80bd 2d23 58bd 0aee bbbc
00000050: 2c54 71bd a3a9 8abd 09c4 443c 5ccb 97bc
00000060: 2ee2 6dbd eb64 ee3c 4748 1abd 5903 58bc
00000070: b7df f1bc ca0a cb3b 6eb1 b0bc dc5e 64bc
00000080: e388 9dbd 1502 33bd 7734 04bb 4f0a 4f3b
00000090: d5cd 61bc faa7 463d 9b99 3cbd 64a4 6bbd
000000a0: 80b0 51bc 2012 8aba 11dc df3c 54b9 afbd
000000b0: 52aa 95bd 3f09 97bd af30 9b3c a971 0ebd
000000c0: 3f19 81bd 0235 6abc f9e6 c93b a499 0bbd
000000d0: e7d6 3cbd 1415 22bc 9d2b 8dbc 819d 87bd
000000e0: 3b42 823d da9d cb3c db38 ef3c 8bb1 cbbb
000000f0: abc8 26bd 2f61 b0bd 6850 43bd a313 2d3d

embedding.conv3.batch_norm_layer.weight f4 [64]
0.46395928 0.47437757 0.33177835 0.4153628 0.69481236 0.6817565 0.45296267 0.51937646
0.4512161 0.79693866 0.3455222 0.38882247 0.8072171 0.53120226 0.7725398 0.6730383
0.72946167 0.29157782 0.1853775 0.7688966 0.39132333 0.6650407 0.4229914 0.46656448
0.716289 0.9144239 0.5449382 0.51378095 0.2724552 0.7096761 0.43827724 0.6781357
0.45324704 0.34123325 0.5137288 0.5026071 0.17991208 0.55384594 0.3240159 0.27768487
0.21063977 0.2930392 0.6098028 0.20294826 0.26467484 0.25875074 0.59239423 0.411455
0.22285537 0.1584983 0.39912814 0.7698678 0.29636317 0.46466717 0.6162704 0.44378257
0.7307716 0.8727287 0.6131666 0.36478302 0.33093616 0.2393992 0.31390613 0.63172466
00000000: 128c ed3e 9ee1 f23e dade a93e 6faa d43e
00000010: 39df 313f 9887 2e3f b9ea e73e dbf5 043f
00000020: cc05 e73e 2c04 4c3f 49e8 b03e bd13 c73e
00000030: c8a5 4e3f dffc 073f 2bc5 453f 3d4c 2c3f
00000040: 00be 3a3f b049 953e 99d3 3d3e 68d6 443f
00000050: 885b c83e 1b40 2a3f 5492 d83e 8ae1 ee3e
00000060: b75e 373f af17 6a3f 1281 0b3f 2687 033f
00000070: 3f7f 8b3e 55ad 353f e065 e03e 4d9a 2d3f
00000080: ff0f e83e 20b6 ae3e bb83 033f dcaa 003f
00000090: df3a 383e d9c8 0d3f 69e5 a53e b62c 8e3e
000000a0: f4b1 573e 3c09 963e 091c 1c3f abd1 4f3e
000000b0: 7683 873e fa7a 843e 26a7 173f 3baa d23e
000000c0: 3334 643e 614d 223e 865a cc3e 0e16 453f
000000d0: eabc 973e dbe8 ed3e e6c3 1d3f 7837 e33e
000000e0: d913 3b3f 266b 5f3f 7cf8 1c3f d7c4 ba3e
000000f0: 7770 a93e 1025 753e 4eb8 a03e b5b8 213f

embedding.conv3.batch_norm_layer.bias f4 [64]
-0.06329001 0.0004377507 -0.04878044 -0.040775266 -0.10930804 -0.023109054 -0.033835027 -0.0872553
-0.06455558 -0.08349589 -0.014168684 -0.035114948 -0.08786817 -0.0541874 -0.043960746 -0.04767198
-0.041255686 0.01684203 -0.009972446 -0.08280404 -0.038767885 -0.088068776 -0.059562515 -0.028347898
-0.052006952 -0.10238472 -0.009680598 -0.12542193 -0.022626713 -0.07114109 -0.05843127 -0.087664716
-0.097306825 -0.027957065 -0.06814954 -0.04739133 0.008273772 -0.014149712 -0.020535383 -0.03322896
-0.023356488 0.0043135416 -0.080839925 -0.028312195 0.00042313262 -0.03128049 -0.06878156 0.00094948005
-0.009875447 0.011432508 -0.059271943 -0.109676994 -0.035106737 -0.042139675 -0.059728198 -0.085564606
-0.12608144 -0.0349097 -0.05377475 -0.033808023 -0.01904802 -0.025566604 -0.023892816 -0.050587103
00000000: 319e 81bd e881 e539 00ce 47bd f703 27bd
00000010: e5dc dfbd 334f bdbc 9996 0abd e8b2 b2bd
00000020: b735 84bd e5ff aabd c523 68bc b1d4 0fbd
00000030: 3af4 b3bd 9bf3 5dbd 2f10 34bd b243 43bd
00000040: b9fb 28bd 4cf8 893c 7863 23bc 2a95 a9bd
00000050: 13cb 1ebd 675d b4bd d3f7 73bd da39 e8bc
00000060: 3e05 55bd 15af d1bd 5f9b 1ebc 9b6e 00be
00000070: a85b b9bc 6bb2 91bd a155 6fbd 8f89 b3bd
00000080: cd48 c7bd 3706 e5bc fc91 8bbd 691d 42bd
00000090: b78e 073c 32d4 67bc d239 a8bc 171b 08bd
000000a0: 1b56 bfbc 9c58 8d3b 678f a5bd faee e7bc
000000b0: e6d7 dd39 f91f 00bd 59dd 8cbd 87e6 783a
000000c0: a0cc 21bc 6a4f 3b3c 23c7 72bd 559e e0bd
000000d0: 15cc 0fbd a79a 2cbd 8ea5 74bd 7f3c afbd
000000e0: 7e1b 01be 79fd 0ebd ea42 5cbd 487a 0abd
000000f0: 980a 9cbc 0e71 d1bc deba c3bc 6c34 4fbd

embedding.conv3.batch_norm_layer.running_mean f4 [64]
0.15823264 0.06353546 0.28915218 0.2262978 0.5523873 0.16612074 0.31105357 0.3209843
0.16906877 0.36863926 0.1590587 0.27090445 0.3972954 0.10719109 0.15782851 0.17911543
0.12343763 0.08401908 0.09609192 0.28659844 0.14534153 0.67644966 0.46029338 0.24360788
0.17020291 0.49050102 0.07799043 0.365797 0.09865169 0.21824504 0.20029655 0.37256008
0.3675368 0.10186689 0.22449465 0.09511193 0.052384533 0.2575828 0.12061551 0.1279077
0.09213096 0.25817046 0.2807585 0.049987365 0.13398945 0.0698181 0.31518257 0.1401861
0.07425571 0.022362841 0.20880312 0.21158025 0.028386163 0.1881412 0.21160562 0.1904626
0.80546415 0.25340688 0.17214976 0.2066451 0.11348405 0.038561035 0.19066536 0.22475763
00000000: bd07 223e e11e 823d c10b 943e 9cba 673e
00000010: 4169 0d3f 8e1b 2a3e 6a42 9f3e 0e58 a43e
00000020: 5d20 2d3e 49be bc3e 49e0 223e fdb3 8a3e
00000030: 4d6a cb3e 0187 db3d cc9d 213e 096a 373e
00000040: decc fc3d 3212 ac3d d7cb c43d 08bd 923e
00000050: 69d4 143e ce2b 2d3f 93ab eb3e 5874 793e
00000060: ac49 2e3e f322 fb3e 72b9 9f3d bf49 bb3e
00000070: e609 ca3d a17b 5f3e 8a1a 4d3e 32c0 be3e
00000080: c92d bc3e 979f d03d ede1 653e 0bca c23d
00000090: 2a91 563d e5e1 833e 4405 f73d 3cfa 023e
000000a0: 28af bc3d eb2e 843e 94bf 8f3e 8dbf 4c3d
000000b0: 8834 093e cbfc 8e3d 9c5f a13e f28c 0f3e
000000c0: 6113 983d 4732 b73c 7cd0 553e 7ea8 583e
000000d0: 198a e83c 16a8 403e 25af 583e a108 433e
000000e0: e632 4e3f 8cbe 813e 0748 303e c69a 533e
000000f0: 536a e83d 2df2 1d3d c83d 433e dd26 663e

embedding.conv3.batch_norm_layer.running_var f4 [64]
0.13218138 0.049233973 0.24764143 0.15525468 0.5911754 0.1200385 0.2636787 0.39712876
0.12999207 0.4227697 0.105014086 0.26383245 0.56754804 0.075727046 0.11538164 0.12814184
0.086936675 0.044316392 0.060779314 0.26472202 0.12090955 0.76501733 0.35719034 0.18388861
0.12925175 0.34406075 0.038154874 0.28398156 0.08456329 0.23847866 0.120209396 0.35552827
0.42313606 0.06311876 0.18481563 0.070778854 0.036313456 0.17640835 0.08202323 0.11219722
0.059939288 0.18250951 0.25078952 0.038794708 0.097250134 0.0492433 0.3454752 0.08887566
0.05478194 0.011835999 0.1625405 0.16952686 0.017218584 0.1611889 0.13641396 0.17270996
0.8129924 0.15624963 0.11191525 0.1431433 0.058991387 0.026297279 0.13647303 0.1478808
00000000: 8e5a 073e 90a9 493d b795 7d3e 15fb 1e3e
00000010: 4557 173f bfd6 f53d e500 873e 7654 cb3e
00000020: a41c 053e 4575 d83e a011 d73d 0c15 873e
00000030: d44a 113f c816 9b3d 364d ec3d 9d37 033e
00000040: db0b b23d 1b85 353d bbf3 783d a589 873e
00000050: 6d9f f73d 2dd8 433f a7e1 b63e 4c4d 3c3e
00000060: 925a 043e bb28 b03e 4948 1c3d 0866 913e
00000070: 852f ad3d c033 743e 5830 f63d cd07 b63e
00000080: 4aa5 d83e 6944 813d 4f40 3d3e 81f4 903d
00000090: 6bbd 143d 64a4 343e ccfb a73d a8c7 e53d
000000a0: e682 753d c6e3 3a3e 7c67 803e 33e7 1e3d
000000b0: 142b c73d 58b3 493d 20e2 b03e 7104 b63d
000000c0: 0763 603d c7eb 413c 0471 263e 7398 2d3e
000000d0: fd0d 8d3c b40e 253e 1ab0 0b3e e1da 303e
000000e0: 4520 503f e7ff 1f3e d333 e53d 2894 123e
000000f0: f4a0 713d 646d d73c 96bf 0b3e 106e 173e

embedding.conv4.conv.weight f4 [64, 64, 3, 3]
0.016381525 -0.0006727474 0.037560996 -0.010190771 0.025217952 0.024854304 -0.036075357 -0.015591363
0.05544151 0.021486038 -0.012437785 -0.033926107 -0.020645188 0.00079396507 0.03236752 -0.030290829
-0.04422093 0.017110253 0.027196772 -0.056393757 -0.040451963 -0.0071564736 -0.028182488 -0.03870476
-0.00785575 -0.0718708 -0.048805427 0.025848132 -0.035350945 -0.008297872 0.013498722 -0.0011336936
0.016448738 -0.020120073 0.016912488 -0.020222537 0.008934804 0.027489876 -0.049068913 0.007177511
0.034775015 0.0061084763 -0.053403962 -0.027821233 -0.050231643 -0.0012567868 0.036204223 -0.02511404
-0.06350101 -0.015454411 -0.015792953 -0.00823862 0.06733703 0.02010849 0.01623137 -0.0265759
-0.02368853 0.0096781645 -0.004291618 -0.033559185 0.046053216 0.07742568 -0.029923132 -0.07090709
0.00632371 -0.0012510028 -0.022845453 -0.01445972 -0.02124581 0.03457823 0.011160223 0.0032745134
0.007330954 0.081326805 0.022383356 0.016673282 0.010763086 0.0140239475 -0.025489435 -0.017511455
-0.013873998 -0.024130758 -0.027873036 -0.030748213 -0.022808438 0.029955823 -0.002497513 -0.03678852
-0.03251477 -0.024970999 -0.0023053486 0.028296674 -0.05324152 -0.009701339 0.041587245 0.05210784
-0.0069019836 -0.02610162 -0.043176413 0.007897037 0.026695678 0.04309178 -0.0017432341 0.012653335
-0.012110384 -0.03384082 0.038968373 0.059548214 -0.02355893 0.03589471 -0.0023259697 0.012244352
0.00484171 -0.022002025 -0.0011810889 0.03886516 0.036500014 -0.03189534 -0.023803791 0.020616656
-0.006882443 -0.0029929907 0.027621742 -0.019416062 -0.03712682 0.036036197 0.052794255 0.0190677
0.03311953 -0.004274066 0.013844873 -0.013723994 -0.004290186 -0.010662692 0.057127923 -0.016794078
-0.021895211 0.0017988962 -0.0012077506 0.025188336 0.006256807 0.0034018857 0.029029807 -0.022229591
0.042937033 0.02318117 -0.012483079 -0.005142673 -0.006868312 -0.0010953599 0.013848877 0.02103664
-0.015486978 -0.030584587 0.026802145 -0.008614441 -0.03881927 -0.027493883 0.020601278 0.0070365597
0.035864405 -0.021094402 0.008378801 0.013833246 0.011253195 -0.016077843 0.057349514 -0.049474955
-0.009419879 -0.0032581016 -0.06369918 0.017092925 0.013855232 0.024788678 0.0105306385 -0.010407813
-0.007895752 -0.06349785 0.007837971 0.04869887 -0.027089618 0.019312631 0.01577658 -0.037064716
0.02906806 -0.050452527 -0.014434453 0.010513432 -0.08740062 -0.009768798 -0.0045542866 -0.025098775
0.023736352 -0.011681304 -0.023684934 0.021422314 -0.042228628 -0.024919178 -0.03128804 -0.012599948
-0.099739425 -0.0037114236 0.005370875 0.0021419944 -0.023603003 -0.037916914 -0.03150586 -0.021715004
-0.005508259 -0.03516682 -0.04713358 -0.043324437 0.029503532 -0.03718062 0.03276042 -0.00029133962
0.027041212 -0.0067934627 0.03858286 -0.042789698 0.026241621 0.043405306 0.037711114 0.034909032
-0.0016765349 -0.011312815 -0.019208707 -0.00544245 0.027566135 -0.04308284 -0.053642374 -0.0051990347
-0.00985005 0.025177803 0.002718011 0.009021042 -0.016792743 0.030576544 0.00803775 -0.02287699
0.018429564 -0.018838452 0.015635997 -0.027977418 -0.014246952 -0.046521995 -0.04848477 0.011588538
-0.07286178 -0.016475348 -0.012029156 -0.017775765 -0.018830763 0.020934755 0.004034488 -0.0020414467
00000000: 8c32 863c 505b 30ba 8fd9 193d 31f7 26bc
00000010: e195 ce3c 419b cb3c c1c3 13bd eb72 7fbc
00000020: a316 633d 7d03 b03c dac7 4bbc 1af6 0abd
00000030: 1920 a9bc 1822 503a ce93 043d 7924 f8bc
00000040: 0221 35bd cd2a 8c3c c4cb de3c 24fd 66bd
00000050: f5b0 25bd da80 eabb f6de e6bc e288 1ebd
00000060: 67b5 00bc ff30 93bd 33e8 47bd 76bf d33c
00000070: 27cc 10bd ccf3 07bc be29 5d3c 7298 94ba
00000080: 81bf 863c dad2 a4bc 0f8c 8a3c bca9 a5bc
00000090: 4963 123c 7332 e13c 7cfc 48bd 5431 eb3b
000000a0: 3f70 0e3d 9d29 c83b 1dbe 5abd 5be9 e3bc
000000b0: b2bf 4dbd c4ba a4ba e14a 143d f6bb cdbc
000000c0: d10c 82bd 7f34 7dbc 3960 81bc 47fb 06bc
000000d0: ffe7 893d 8fba a43c a6f7 843c b4b5 d9bc
000000e0: 730e c2bc 2a91 1e3c b3a0 8cbb 5b75 09bd
000000f0: 4ca2 3c3d 5b91 9e3d 5b21 f5bc bd37 91bd
00000100: 2037 cf3b b0f8 a3ba 6326 bbbc 76e8 6cbc
00000110: b10b aebc e7a1 0d3d 5ed9 363c 3899 563b
00000120: 8038 f03b ab8e a63d 4d5d b73c 6896 883c
00000130: a857 303c b3c4 653c 38cf d0bc 2f74 8fbc
00000140: c44f 63bc dead c5bc fe55 e4bc ade3 fbbc
00000150: c3d8 babc ea65 f53c 51ad 23bb 8faf 16bd
00000160: 352e 05bd fb8f ccbc 5515 17bb 6dce e73c
00000170: c813 5abd 5df2 1ebc 6357 2a3d 086f 553d
00000180: 092a e2bb 11d3 d5bc c0d9 30bd 9362 013c
00000190: e5b0 da3c 0281 303d 3b7d e4ba ef4f 4f3c
000001a0: a26a 46bc ac9c 0abd 4d9d 1f3d d4e8 733d
000001b0: a8fe c0bc 5506 133d 4c6f 18bb 899c 483c
000001c0: 35a7 9e3b 973d b4bc c4ce 9aba 1331 1f3d
000001d0: 0a81 153d b0a4 02bd 2b00 c3bc 43e4 a83c
000001e0: 1e86 e1bb 0d26 44bb fe46 e23c 6f0e 9fbc
000001f0: 4b12 18bd b19a 133d ca3e 583d dd33 9c3c
00000200: 58a8 073d 770d 8cbb 9bd5 623c 9ada 60bc
00000210: b094 8cbb 92b2 2ebc f8fe 693d bc93 89bc
00000220: 965d b3bc f1c8 eb3a 634d 9eba c557 ce3c
00000230: e705 cd3b 2cf2 5e3b ebcf ed3c d51a b6bc
00000240: bede 2f3d 70e6 bd3c d485 4cbc de83 a8bb
00000250: 940f e1bb 2e92 8fba 66e6 623c 0855 ac3c
00000260: 18bd 7dbc 878c fabc 2c90 db3c 9623 0dbc
00000270: f400 1fbd da3a e1bc 03c4 a83c f192 e63b
00000280: 8ee6 123d 2bce acbc 3d47 093c d7a4 623c
00000290: 525f 383c aeb5 83bc 53e7 6a3d 40a6 4abd
000002a0: d655 1abc e085 55bb b774 82bd 7606 8c3c
000002b0: 0e01 633c a011 cb3c b388 2c3c 8885 2abc
000002c0: 2f5d 01bc 290b 82bd d56a 003c 7778 473d
000002d0: 0ceb ddbc 8635 9e3c e33d 813c 2cd1 17bd
000002e0: 2420 ee3c 4fa7 4ebd 7c7e 6cbc 8840 2c3c
000002f0: 19ff b2bd 4f0d 20bc 203c 95bb f29b cdbc
00000300: bd72 c23c f162 3fbc e806 c2bc d97d af3c
00000310: edf7 2cbd 4e23 ccbc e327 00bd 0370 4ebc
00000320: 2f44 ccbd 5b3b 73bb 2afe af3b b460 0c3b
00000330: 165b c1bc c44e 1bbd 4a0c 01bd aae3 b1bc
00000340: a07e b4bb 150b 10bd 240f 41bd f774 31bd
00000350: 64b1 f13c b54a 18bd ca2f 063d f1be 98b9
00000360: 8885 dd3c b29b debb 1009 1e3d 4044 2fbd
00000370: abf8 d63c c3c9 313d f876 1a3d c6fc 0e3d
00000380: 2dbf dbba 6359 39bc 945b 9dbc 9456 b2bb
00000390: 60d2 e13c a277 30bd 1bb8 5bbd aa5c aabb
000003a0: 1b62 21bc ae41 ce3c a820 323b fecc 133c
000003b0: ef90 89bc a97b fa3c c4b0 033c 8668 bbbc
000003c0: 99f9 963c 1953 9abc 1017 803c e630 e5bc
000003d0: 0c6c 69bc d98d 3ebd f797 46bd dadd 3d3c
000003e0: 8f38 95bd 4ff7 86bc f015 45bc 7b9e 91bc
000003f0: f942 9abc 5d7f ab3c bd33 843b cbc9 05bb

embedding.conv4.conv.bias f4 [64]
-0.10007924 -0.051004194 -0.10323798 -0.10083572 -0.08512768 -0.00021133869 -0.06876474 -0.056025885
-0.08411157 -0.03888212 -0.09596364 -0.0813672 -0.06307167 0.016907567 -0.08536775 -0.00086149387
-0.004176366 -0.074442744 -0.036355603 -0.058581084 -0.017341027 -0.03807178 -0.049616247 -0.073977545
-0.11313104 -0.025603931 0.0027694772 -0.03378735 -0.08625047 0.01577456 -0.08651007 -0.04358878
-0.028426712 -0.011626809 0.007752551 -0.047670003 0.006260084 -0.047956683 -0.027632598 -0.08557384
0.007458818 -0.02461799 0.031530533 -0.07301574 -0.019979665 0.0068152416 -0.011265448 -0.037259538
-0.004678945 -0.039277617 -0.06282353 -0.05429699 -0.019900491 -0.10529076 0.018533103 -0.004780668
-0.05971033 -0.017193161 -0.049413502 -0.025266819 -0.039373618 -0.064088605 -0.044346943 -0.039110553
00000000: 58f6 ccbd c6e9 50bd 6f6e d3bd f582 cebd
00000010: 6c57 aebd cc9a 5db9 87d4 8cbd 667b 65bd
00000020: b042 acbd dc42 1fbd 9688 c4bd d9a3 a6bd
00000030: b82b 81bd bd81 8a3c 49d5 aebd e0d5 61ba
00000040: e6d9 88bb 7075 98bd 9de9 14bd b8f2 6fbd
00000050: c50e 8ebc 28f1 1bbd 683a 4bbd 8a81 97bd
00000060: 3fb1 e7bd 56bf d1bc 1e80 353b 9b64 0abd
00000070: 16a4 b0bd a639 813c 312c b1bd 268a 32bd
00000080: 23df e8bc 5f7e 3ebc 1d09 fe3b 9f41 43bd
00000090: 6421 cd3b 3a6e 44bd c25d e2bc 5641 afbd
000000a0: 1a69 f43b abab c9bc 2926 013d 4789 95bd
000000b0: 65ac a3bc 6452 df3b b792 38bc 759d 18bd
000000c0: d651 99bb 91e1 20bd 9fa9 80bd 8566 5ebd
000000d0: 5b06 a3bc afa2 d7bd bcd2 973c 26a7 9cbb
000000e0: d292 74bd acd8 8cbc d065 4abd 5cfc cebc
000000f0: 3b46 21bd e340 83bd 24a5 35bd 6332 20bd
